…
I1205 23:37:51.766819  3823 net.cpp:322] The NetState phase (0) differed from the phase (1) specified by a rule in layer mnist
I1205 23:37:51.766906  3823 net.cpp:322] The NetState phase (0) differed from the phase (1) specified by a rule in layer accuracy
I1205 23:37:51.766968  3823 net.cpp:58] Initializing net from parameters: 
name: "LeNet"
state {
  phase: TRAIN
  level: 0
  stage: ""
}
layer {
  name: "mnist"
  type: "Data"
  top: "data"
  top: "label"
  include {
    phase: TRAIN
  }
  transform_param {
    scale: 0.00390625
  }
  data_param {
    source: "examples/mnist/mnist_train_lmdb"
    batch_size: 64
    backend: LMDB
  }
}
layer {
  name: "conv1"
  type: "Convolution"
  bottom: "data"
  top: "conv1"
  param {
    lr_mult: 1
  }
  param {
    lr_mult: 2
  }
  convolution_param {
    num_output: 40
    kernel_size: 5
    stride: 1
    weight_filler {
      type: "xavier"
    }
    bias_filler {
      type: "constant"
    }
  }
}
layer {
  name: "pool1"
  type: "Pooling"
  bottom: "conv1"
  top: "pool1"
  pooling_param {
    pool: MAX
    kernel_size: 2
    stride: 2
  }
}
layer {
  name: "conv2"
  type: "Convolution"
  bottom: "pool1"
  top: "conv2"
  param {
    lr_mult: 1
  }
  param {
    lr_mult: 2
  }
  convolution_param {
    num_output: 50
    kernel_size: 5
    stride: 1
    weight_filler {
      type: "xavier"
    }
    bias_filler {
      type: "constant"
    }
  }
}
layer {
  name: "pool2"
  type: "Pooling"
  bottom: "conv2"
  top: "pool2"
  pooling_param {
    pool: MAX
    kernel_size: 2
    stride: 2
  }
}
layer {
  name: "ip1"
  type: "InnerProduct"
  bottom: "pool2"
  top: "ip1"
  param {
    lr_mult: 1
  }
  param {
    lr_mult: 2
  }
  inner_product_param {
    num_output: 500
    weight_filler {
      type: "xavier"
    }
    bias_filler {
      type: "constant"
    }
  }
}
layer {
  name: "relu1"
  type: "ReLU"
  bottom: "ip1"
  top: "ip1"
}
layer {
  name: "ip2"
  type: "InnerProduct"
  bottom: "ip1"
  top: "ip2"
  param {
    lr_mult: 1
  }
  param {
    lr_mult: 2
  }
  inner_product_param {
    num_output: 10
    weight_filler {
      type: "xavier"
    }
    bias_filler {
      type: "constant"
    }
  }
}
layer {
  name: "loss"
  type: "SoftmaxWithLoss"
  bottom: "ip2"
  bottom: "label"
  top: "loss"
}
I1205 23:37:51.768946  3823 layer_factory.hpp:77] Creating layer mnist
I1205 23:37:51.770113  3823 net.cpp:100] Creating Layer mnist
I1205 23:37:51.770182  3823 net.cpp:408] mnist -> data
I1205 23:37:51.770270  3823 net.cpp:408] mnist -> label
I1205 23:37:51.771260  3830 db_lmdb.cpp:35] Opened lmdb examples/mnist/mnist_train_lmdb
I1205 23:37:51.832594  3823 data_layer.cpp:41] output data size: 64,1,28,28
I1205 23:37:51.835172  3823 net.cpp:150] Setting up mnist
I1205 23:37:51.835242  3823 net.cpp:157] Top shape: 64 1 28 28 (50176)
I1205 23:37:51.835314  3823 net.cpp:157] Top shape: 64 (64)
I1205 23:37:51.835350  3823 net.cpp:165] Memory required for data: 200960
I1205 23:37:51.835402  3823 layer_factory.hpp:77] Creating layer conv1
I1205 23:37:51.835484  3823 net.cpp:100] Creating Layer conv1
I1205 23:37:51.835528  3823 net.cpp:434] conv1 <- data
I1205 23:37:51.835584  3823 net.cpp:408] conv1 -> conv1
I1205 23:37:52.631086  3823 net.cpp:150] Setting up conv1
I1205 23:37:52.631165  3823 net.cpp:157] Top shape: 64 40 24 24 (1474560)
I1205 23:37:52.631214  3823 net.cpp:165] Memory required for data: 6099200
I1205 23:37:52.631299  3823 layer_factory.hpp:77] Creating layer pool1
I1205 23:37:52.631362  3823 net.cpp:100] Creating Layer pool1
I1205 23:37:52.631484  3823 net.cpp:434] pool1 <- conv1
I1205 23:37:52.631531  3823 net.cpp:408] pool1 -> pool1
I1205 23:37:52.631711  3823 net.cpp:150] Setting up pool1
I1205 23:37:52.631752  3823 net.cpp:157] Top shape: 64 40 12 12 (368640)
I1205 23:37:52.631791  3823 net.cpp:165] Memory required for data: 7573760
I1205 23:37:52.631825  3823 layer_factory.hpp:77] Creating layer conv2
I1205 23:37:52.631872  3823 net.cpp:100] Creating Layer conv2
I1205 23:37:52.631904  3823 net.cpp:434] conv2 <- pool1
I1205 23:37:52.631945  3823 net.cpp:408] conv2 -> conv2
I1205 23:37:52.636724  3823 net.cpp:150] Setting up conv2
I1205 23:37:52.636791  3823 net.cpp:157] Top shape: 64 50 8 8 (204800)
I1205 23:37:52.636833  3823 net.cpp:165] Memory required for data: 8392960
I1205 23:37:52.636881  3823 layer_factory.hpp:77] Creating layer pool2
I1205 23:37:52.636934  3823 net.cpp:100] Creating Layer pool2
I1205 23:37:52.636970  3823 net.cpp:434] pool2 <- conv2
I1205 23:37:52.637011  3823 net.cpp:408] pool2 -> pool2
I1205 23:37:52.637197  3823 net.cpp:150] Setting up pool2
I1205 23:37:52.637238  3823 net.cpp:157] Top shape: 64 50 4 4 (51200)
I1205 23:37:52.637280  3823 net.cpp:165] Memory required for data: 8597760
I1205 23:37:52.637317  3823 layer_factory.hpp:77] Creating layer ip1
I1205 23:37:52.637367  3823 net.cpp:100] Creating Layer ip1
I1205 23:37:52.637398  3823 net.cpp:434] ip1 <- pool2
I1205 23:37:52.637440  3823 net.cpp:408] ip1 -> ip1
I1205 23:37:52.642685  3823 net.cpp:150] Setting up ip1
I1205 23:37:52.642745  3823 net.cpp:157] Top shape: 64 500 (32000)
I1205 23:37:52.642779  3823 net.cpp:165] Memory required for data: 8725760
I1205 23:37:52.642824  3823 layer_factory.hpp:77] Creating layer relu1
I1205 23:37:52.642868  3823 net.cpp:100] Creating Layer relu1
I1205 23:37:52.642899  3823 net.cpp:434] relu1 <- ip1
I1205 23:37:52.642933  3823 net.cpp:395] relu1 -> ip1 (in-place)
I1205 23:37:52.644992  3823 net.cpp:150] Setting up relu1
I1205 23:37:52.645061  3823 net.cpp:157] Top shape: 64 500 (32000)
I1205 23:37:52.645108  3823 net.cpp:165] Memory required for data: 8853760
I1205 23:37:52.645148  3823 layer_factory.hpp:77] Creating layer ip2
I1205 23:37:52.645202  3823 net.cpp:100] Creating Layer ip2
I1205 23:37:52.645241  3823 net.cpp:434] ip2 <- ip1
I1205 23:37:52.645282  3823 net.cpp:408] ip2 -> ip2
I1205 23:37:52.645881  3823 net.cpp:150] Setting up ip2
I1205 23:37:52.645939  3823 net.cpp:157] Top shape: 64 10 (640)
I1205 23:37:52.645973  3823 net.cpp:165] Memory required for data: 8856320
I1205 23:37:52.646023  3823 layer_factory.hpp:77] Creating layer loss
I1205 23:37:52.646076  3823 net.cpp:100] Creating Layer loss
I1205 23:37:52.646111  3823 net.cpp:434] loss <- ip2
I1205 23:37:52.646148  3823 net.cpp:434] loss <- label
I1205 23:37:52.646190  3823 net.cpp:408] loss -> loss
I1205 23:37:52.646261  3823 layer_factory.hpp:77] Creating layer loss
…
I1205 23:37:52.649365  3823 solver.cpp:193] Creating test net (#0) specified by net file: examples/mnist/lenet_train_test.prototxt
I1205 23:37:52.649535  3823 net.cpp:322] The NetState phase (1) differed from the phase (0) specified by a rule in layer mnist
I1205 23:37:52.649596  3823 net.cpp:58] Initializing net from parameters: 
name: "LeNet"
state {
  phase: TEST
}
layer {
  name: "mnist"
  type: "Data"
  top: "data"
  top: "label"
  include {
    phase: TEST
  }
  transform_param {
    scale: 0.00390625
  }
  data_param {
    source: "examples/mnist/mnist_test_lmdb"
    batch_size: 100
    backend: LMDB
  }
}
layer {
  name: "conv1"
  type: "Convolution"
  bottom: "data"
  top: "conv1"
  param {
    lr_mult: 1
  }
  param {
    lr_mult: 2
  }
  convolution_param {
    num_output: 40
    kernel_size: 5
    stride: 1
    weight_filler {
      type: "xavier"
    }
    bias_filler {
      type: "constant"
    }
  }
}
layer {
  name: "pool1"
  type: "Pooling"
  bottom: "conv1"
  top: "pool1"
  pooling_param {
    pool: MAX
    kernel_size: 2
    stride: 2
  }
}
layer {
  name: "conv2"
  type: "Convolution"
  bottom: "pool1"
  top: "conv2"
  param {
    lr_mult: 1
  }
  param {
    lr_mult: 2
  }
  convolution_param {
    num_output: 50
    kernel_size: 5
    stride: 1
    weight_filler {
      type: "xavier"
    }
    bias_filler {
      type: "constant"
    }
  }
}
layer {
  name: "pool2"
  type: "Pooling"
  bottom: "conv2"
  top: "pool2"
  pooling_param {
    pool: MAX
    kernel_size: 2
    stride: 2
  }
}
layer {
  name: "ip1"
  type: "InnerProduct"
  bottom: "pool2"
  top: "ip1"
  param {
    lr_mult: 1
  }
  param {
    lr_mult: 2
  }
  inner_product_param {
    num_output: 500
    weight_filler {
      type: "xavier"
    }
    bias_filler {
      type: "constant"
    }
  }
}
layer {
  name: "relu1"
  type: "ReLU"
  bottom: "ip1"
  top: "ip1"
}
layer {
  name: "ip2"
  type: "InnerProduct"
  bottom: "ip1"
  top: "ip2"
  param {
    lr_mult: 1
  }
  param {
    lr_mult: 2
  }
  inner_product_param {
    num_output: 10
    weight_filler {
      type: "xavier"
    }
    bias_filler {
      type: "constant"
    }
  }
}
layer {
  name: "accuracy"
  type: "Accuracy"
  bottom: "ip2"
  bottom: "label"
  top: "accuracy"
  include {
    phase: TEST
  }
}
layer {
  name: "loss"
  type: "SoftmaxWithLoss"
  bottom: "ip2"
  bottom: "label"
  top: "loss"
}
I1205 23:37:52.652046  3823 layer_factory.hpp:77] Creating layer mnist
I1205 23:37:52.652321  3823 net.cpp:100] Creating Layer mnist
I1205 23:37:52.652374  3823 net.cpp:408] mnist -> data
I1205 23:37:52.652427  3823 net.cpp:408] mnist -> label
I1205 23:37:52.653506  3832 db_lmdb.cpp:35] Opened lmdb examples/mnist/mnist_test_lmdb
I1205 23:37:52.653861  3823 data_layer.cpp:41] output data size: 100,1,28,28
I1205 23:37:52.658624  3823 net.cpp:150] Setting up mnist
I1205 23:37:52.658689  3823 net.cpp:157] Top shape: 100 1 28 28 (78400)
I1205 23:37:52.658735  3823 net.cpp:157] Top shape: 100 (100)
I1205 23:37:52.658771  3823 net.cpp:165] Memory required for data: 314000
I1205 23:37:52.658809  3823 layer_factory.hpp:77] Creating layer label_mnist_1_split
I1205 23:37:52.658859  3823 net.cpp:100] Creating Layer label_mnist_1_split
I1205 23:37:52.658901  3823 net.cpp:434] label_mnist_1_split <- label
I1205 23:37:52.658949  3823 net.cpp:408] label_mnist_1_split -> label_mnist_1_split_0
I1205 23:37:52.659003  3823 net.cpp:408] label_mnist_1_split -> label_mnist_1_split_1
I1205 23:37:52.659230  3823 net.cpp:150] Setting up label_mnist_1_split
I1205 23:37:52.659283  3823 net.cpp:157] Top shape: 100 (100)
I1205 23:37:52.659322  3823 net.cpp:157] Top shape: 100 (100)
I1205 23:37:52.659355  3823 net.cpp:165] Memory required for data: 314800
I1205 23:37:52.659395  3823 layer_factory.hpp:77] Creating layer conv1
I1205 23:37:52.659449  3823 net.cpp:100] Creating Layer conv1
I1205 23:37:52.659482  3823 net.cpp:434] conv1 <- data
I1205 23:37:52.659524  3823 net.cpp:408] conv1 -> conv1
I1205 23:37:52.672664  3823 net.cpp:150] Setting up conv1
I1205 23:37:52.672746  3823 net.cpp:157] Top shape: 100 40 24 24 (2304000)
I1205 23:37:52.672806  3823 net.cpp:165] Memory required for data: 9530800
I1205 23:37:52.672866  3823 layer_factory.hpp:77] Creating layer pool1
I1205 23:37:52.672979  3823 net.cpp:100] Creating Layer pool1
I1205 23:37:52.673017  3823 net.cpp:434] pool1 <- conv1
I1205 23:37:52.673065  3823 net.cpp:408] pool1 -> pool1
I1205 23:37:52.673276  3823 net.cpp:150] Setting up pool1
I1205 23:37:52.673321  3823 net.cpp:157] Top shape: 100 40 12 12 (576000)
I1205 23:37:52.673354  3823 net.cpp:165] Memory required for data: 11834800
I1205 23:37:52.673389  3823 layer_factory.hpp:77] Creating layer conv2
I1205 23:37:52.673452  3823 net.cpp:100] Creating Layer conv2
I1205 23:37:52.673486  3823 net.cpp:434] conv2 <- pool1
I1205 23:37:52.673527  3823 net.cpp:408] conv2 -> conv2
I1205 23:37:52.680847  3823 net.cpp:150] Setting up conv2
I1205 23:37:52.680907  3823 net.cpp:157] Top shape: 100 50 8 8 (320000)
I1205 23:37:52.680953  3823 net.cpp:165] Memory required for data: 13114800
I1205 23:37:52.681033  3823 layer_factory.hpp:77] Creating layer pool2
I1205 23:37:52.681085  3823 net.cpp:100] Creating Layer pool2
I1205 23:37:52.681121  3823 net.cpp:434] pool2 <- conv2
I1205 23:37:52.681161  3823 net.cpp:408] pool2 -> pool2
I1205 23:37:52.681325  3823 net.cpp:150] Setting up pool2
I1205 23:37:52.681363  3823 net.cpp:157] Top shape: 100 50 4 4 (80000)
I1205 23:37:52.681399  3823 net.cpp:165] Memory required for data: 13434800
I1205 23:37:52.681432  3823 layer_factory.hpp:77] Creating layer ip1
I1205 23:37:52.681475  3823 net.cpp:100] Creating Layer ip1
I1205 23:37:52.681511  3823 net.cpp:434] ip1 <- pool2
I1205 23:37:52.681555  3823 net.cpp:408] ip1 -> ip1
I1205 23:37:52.686967  3823 net.cpp:150] Setting up ip1
I1205 23:37:52.687023  3823 net.cpp:157] Top shape: 100 500 (50000)
I1205 23:37:52.687058  3823 net.cpp:165] Memory required for data: 13634800
I1205 23:37:52.687144  3823 layer_factory.hpp:77] Creating layer relu1
I1205 23:37:52.687196  3823 net.cpp:100] Creating Layer relu1
I1205 23:37:52.687237  3823 net.cpp:434] relu1 <- ip1
I1205 23:37:52.687271  3823 net.cpp:395] relu1 -> ip1 (in-place)
I1205 23:37:52.688771  3823 net.cpp:150] Setting up relu1
I1205 23:37:52.688820  3823 net.cpp:157] Top shape: 100 500 (50000)
I1205 23:37:52.688884  3823 net.cpp:165] Memory required for data: 13834800
I1205 23:37:52.688937  3823 layer_factory.hpp:77] Creating layer ip2
I1205 23:37:52.689020  3823 net.cpp:100] Creating Layer ip2
I1205 23:37:52.689055  3823 net.cpp:434] ip2 <- ip1
I1205 23:37:52.689098  3823 net.cpp:408] ip2 -> ip2
I1205 23:37:52.689620  3823 net.cpp:150] Setting up ip2
I1205 23:37:52.689661  3823 net.cpp:157] Top shape: 100 10 (1000)
I1205 23:37:52.689699  3823 net.cpp:165] Memory required for data: 13838800
I1205 23:37:52.689741  3823 layer_factory.hpp:77] Creating layer ip2_ip2_0_split
I1205 23:37:52.689784  3823 net.cpp:100] Creating Layer ip2_ip2_0_split
I1205 23:37:52.689817  3823 net.cpp:434] ip2_ip2_0_split <- ip2
I1205 23:37:52.689857  3823 net.cpp:408] ip2_ip2_0_split -> ip2_ip2_0_split_0
I1205 23:37:52.689898  3823 net.cpp:408] ip2_ip2_0_split -> ip2_ip2_0_split_1
I1205 23:37:52.690052  3823 net.cpp:150] Setting up ip2_ip2_0_split
I1205 23:37:52.690088  3823 net.cpp:157] Top shape: 100 10 (1000)
I1205 23:37:52.690124  3823 net.cpp:157] Top shape: 100 10 (1000)
I1205 23:37:52.690160  3823 net.cpp:165] Memory required for data: 13846800
I1205 23:37:52.690187  3823 layer_factory.hpp:77] Creating layer accuracy
I1205 23:37:52.690233  3823 net.cpp:100] Creating Layer accuracy
I1205 23:37:52.690268  3823 net.cpp:434] accuracy <- ip2_ip2_0_split_0
I1205 23:37:52.690304  3823 net.cpp:434] accuracy <- label_mnist_1_split_0
I1205 23:37:52.690343  3823 net.cpp:408] accuracy -> accuracy
…
