…
I1206 10:47:15.033844  3037 net.cpp:322] The NetState phase (0) differed from the phase (1) specified by a rule in layer mnist
I1206 10:47:15.033927  3037 net.cpp:322] The NetState phase (0) differed from the phase (1) specified by a rule in layer accuracy
I1206 10:47:15.033987  3037 net.cpp:58] Initializing net from parameters: 
name: "LeNet"
state {
  phase: TRAIN
  level: 0
  stage: ""
}
layer {
  name: "mnist"
  type: "Data"
  top: "data"
  top: "label"
  include {
    phase: TRAIN
  }
  transform_param {
    scale: 0.00390625
  }
  data_param {
    source: "examples/mnist/mnist_train_lmdb"
    batch_size: 64
    backend: LMDB
  }
}
layer {
  name: "conv1"
  type: "Convolution"
  bottom: "data"
  top: "conv1"
  param {
    lr_mult: 1
  }
  param {
    lr_mult: 2
  }
  convolution_param {
    num_output: 20
    kernel_size: 5
    stride: 1
    weight_filler {
      type: "constant"
      value: 0
    }
    bias_filler {
      type: "constant"
    }
  }
}
layer {
  name: "pool1"
  type: "Pooling"
  bottom: "conv1"
  top: "pool1"
  pooling_param {
    pool: MAX
    kernel_size: 2
    stride: 2
  }
}
layer {
  name: "conv2"
  type: "Convolution"
  bottom: "pool1"
  top: "conv2"
  param {
    lr_mult: 1
  }
  param {
    lr_mult: 2
  }
  convolution_param {
    num_output: 50
    kernel_size: 5
    stride: 1
    weight_filler {
      type: "constant"
      value: 0
    }
    bias_filler {
      type: "constant"
    }
  }
}
layer {
  name: "pool2"
  type: "Pooling"
  bottom: "conv2"
  top: "pool2"
  pooling_param {
    pool: MAX
    kernel_size: 2
    stride: 2
  }
}
layer {
  name: "ip1"
  type: "InnerProduct"
  bottom: "pool2"
  top: "ip1"
  param {
    lr_mult: 1
  }
  param {
    lr_mult: 2
  }
  inner_product_param {
    num_output: 500
    weight_filler {
      type: "constant"
      value: 0
    }
    bias_filler {
      type: "constant"
    }
  }
}
layer {
  name: "relu1"
  type: "ReLU"
  bottom: "ip1"
  top: "ip1"
}
layer {
  name: "ip2"
  type: "InnerProduct"
  bottom: "ip1"
  top: "ip2"
  param {
    lr_mult: 1
  }
  param {
    lr_mult: 2
  }
  inner_product_param {
    num_output: 10
    weight_filler {
      type: "constant"
      value: 0
    }
    bias_filler {
      type: "constant"
    }
  }
}
layer {
  name: "loss"
  type: "SoftmaxWithLoss"
  bottom: "ip2"
  bottom: "label"
  top: "loss"
}
I1206 10:47:15.036568  3037 layer_factory.hpp:77] Creating layer mnist
I1206 10:47:15.037653  3037 net.cpp:100] Creating Layer mnist
I1206 10:47:15.037715  3037 net.cpp:408] mnist -> data
I1206 10:47:15.037812  3037 net.cpp:408] mnist -> label
I1206 10:47:15.038815  3044 db_lmdb.cpp:35] Opened lmdb examples/mnist/mnist_train_lmdb
I1206 10:47:15.110973  3037 data_layer.cpp:41] output data size: 64,1,28,28
I1206 10:47:15.113831  3037 net.cpp:150] Setting up mnist
I1206 10:47:15.113895  3037 net.cpp:157] Top shape: 64 1 28 28 (50176)
I1206 10:47:15.113960  3037 net.cpp:157] Top shape: 64 (64)
I1206 10:47:15.113998  3037 net.cpp:165] Memory required for data: 200960
I1206 10:47:15.114042  3037 layer_factory.hpp:77] Creating layer conv1
I1206 10:47:15.114125  3037 net.cpp:100] Creating Layer conv1
I1206 10:47:15.114171  3037 net.cpp:434] conv1 <- data
I1206 10:47:15.114223  3037 net.cpp:408] conv1 -> conv1
I1206 10:47:15.914965  3037 net.cpp:150] Setting up conv1
I1206 10:47:15.915045  3037 net.cpp:157] Top shape: 64 20 24 24 (737280)
I1206 10:47:15.915098  3037 net.cpp:165] Memory required for data: 3150080
I1206 10:47:15.915172  3037 layer_factory.hpp:77] Creating layer pool1
I1206 10:47:15.915290  3037 net.cpp:100] Creating Layer pool1
I1206 10:47:15.915328  3037 net.cpp:434] pool1 <- conv1
I1206 10:47:15.915369  3037 net.cpp:408] pool1 -> pool1
I1206 10:47:15.915539  3037 net.cpp:150] Setting up pool1
I1206 10:47:15.915576  3037 net.cpp:157] Top shape: 64 20 12 12 (184320)
I1206 10:47:15.915616  3037 net.cpp:165] Memory required for data: 3887360
I1206 10:47:15.915647  3037 layer_factory.hpp:77] Creating layer conv2
I1206 10:47:15.915699  3037 net.cpp:100] Creating Layer conv2
I1206 10:47:15.915733  3037 net.cpp:434] conv2 <- pool1
I1206 10:47:15.915771  3037 net.cpp:408] conv2 -> conv2
I1206 10:47:15.921085  3037 net.cpp:150] Setting up conv2
I1206 10:47:15.921147  3037 net.cpp:157] Top shape: 64 50 8 8 (204800)
I1206 10:47:15.921186  3037 net.cpp:165] Memory required for data: 4706560
I1206 10:47:15.921243  3037 layer_factory.hpp:77] Creating layer pool2
I1206 10:47:15.921291  3037 net.cpp:100] Creating Layer pool2
I1206 10:47:15.921329  3037 net.cpp:434] pool2 <- conv2
I1206 10:47:15.921366  3037 net.cpp:408] pool2 -> pool2
I1206 10:47:15.921511  3037 net.cpp:150] Setting up pool2
I1206 10:47:15.921548  3037 net.cpp:157] Top shape: 64 50 4 4 (51200)
I1206 10:47:15.921587  3037 net.cpp:165] Memory required for data: 4911360
I1206 10:47:15.921620  3037 layer_factory.hpp:77] Creating layer ip1
I1206 10:47:15.921663  3037 net.cpp:100] Creating Layer ip1
I1206 10:47:15.921695  3037 net.cpp:434] ip1 <- pool2
I1206 10:47:15.921735  3037 net.cpp:408] ip1 -> ip1
I1206 10:47:15.923852  3037 net.cpp:150] Setting up ip1
I1206 10:47:15.923902  3037 net.cpp:157] Top shape: 64 500 (32000)
I1206 10:47:15.923943  3037 net.cpp:165] Memory required for data: 5039360
I1206 10:47:15.923991  3037 layer_factory.hpp:77] Creating layer relu1
I1206 10:47:15.924036  3037 net.cpp:100] Creating Layer relu1
I1206 10:47:15.924072  3037 net.cpp:434] relu1 <- ip1
I1206 10:47:15.924111  3037 net.cpp:395] relu1 -> ip1 (in-place)
I1206 10:47:15.926017  3037 net.cpp:150] Setting up relu1
I1206 10:47:15.926070  3037 net.cpp:157] Top shape: 64 500 (32000)
I1206 10:47:15.926106  3037 net.cpp:165] Memory required for data: 5167360
I1206 10:47:15.926138  3037 layer_factory.hpp:77] Creating layer ip2
I1206 10:47:15.926180  3037 net.cpp:100] Creating Layer ip2
I1206 10:47:15.926210  3037 net.cpp:434] ip2 <- ip1
I1206 10:47:15.926249  3037 net.cpp:408] ip2 -> ip2
I1206 10:47:15.927058  3037 net.cpp:150] Setting up ip2
I1206 10:47:15.927114  3037 net.cpp:157] Top shape: 64 10 (640)
I1206 10:47:15.927153  3037 net.cpp:165] Memory required for data: 5169920
I1206 10:47:15.927197  3037 layer_factory.hpp:77] Creating layer loss
I1206 10:47:15.927251  3037 net.cpp:100] Creating Layer loss
I1206 10:47:15.927289  3037 net.cpp:434] loss <- ip2
I1206 10:47:15.927323  3037 net.cpp:434] loss <- label
I1206 10:47:15.927364  3037 net.cpp:408] loss -> loss
I1206 10:47:15.927438  3037 layer_factory.hpp:77] Creating layer loss
…
I1206 10:47:15.930692  3037 solver.cpp:193] Creating test net (#0) specified by net file: examples/mnist/lenet_train_test.prototxt
I1206 10:47:15.930850  3037 net.cpp:322] The NetState phase (1) differed from the phase (0) specified by a rule in layer mnist
I1206 10:47:15.930905  3037 net.cpp:58] Initializing net from parameters: 
name: "LeNet"
state {
  phase: TEST
}
layer {
  name: "mnist"
  type: "Data"
  top: "data"
  top: "label"
  include {
    phase: TEST
  }
  transform_param {
    scale: 0.00390625
  }
  data_param {
    source: "examples/mnist/mnist_test_lmdb"
    batch_size: 100
    backend: LMDB
  }
}
layer {
  name: "conv1"
  type: "Convolution"
  bottom: "data"
  top: "conv1"
  param {
    lr_mult: 1
  }
  param {
    lr_mult: 2
  }
  convolution_param {
    num_output: 20
    kernel_size: 5
    stride: 1
    weight_filler {
      type: "constant"
      value: 0
    }
    bias_filler {
      type: "constant"
    }
  }
}
layer {
  name: "pool1"
  type: "Pooling"
  bottom: "conv1"
  top: "pool1"
  pooling_param {
    pool: MAX
    kernel_size: 2
    stride: 2
  }
}
layer {
  name: "conv2"
  type: "Convolution"
  bottom: "pool1"
  top: "conv2"
  param {
    lr_mult: 1
  }
  param {
    lr_mult: 2
  }
  convolution_param {
    num_output: 50
    kernel_size: 5
    stride: 1
    weight_filler {
      type: "constant"
      value: 0
    }
    bias_filler {
      type: "constant"
    }
  }
}
layer {
  name: "pool2"
  type: "Pooling"
  bottom: "conv2"
  top: "pool2"
  pooling_param {
    pool: MAX
    kernel_size: 2
    stride: 2
  }
}
layer {
  name: "ip1"
  type: "InnerProduct"
  bottom: "pool2"
  top: "ip1"
  param {
    lr_mult: 1
  }
  param {
    lr_mult: 2
  }
  inner_product_param {
    num_output: 500
    weight_filler {
      type: "constant"
      value: 0
    }
    bias_filler {
      type: "constant"
    }
  }
}
layer {
  name: "relu1"
  type: "ReLU"
  bottom: "ip1"
  top: "ip1"
}
layer {
  name: "ip2"
  type: "InnerProduct"
  bottom: "ip1"
  top: "ip2"
  param {
    lr_mult: 1
  }
  param {
    lr_mult: 2
  }
  inner_product_param {
    num_output: 10
    weight_filler {
      type: "constant"
      value: 0
    }
    bias_filler {
      type: "constant"
    }
  }
}
layer {
  name: "accuracy"
  type: "Accuracy"
  bottom: "ip2"
  bottom: "label"
  top: "accuracy"
  include {
    phase: TEST
  }
}
layer {
  name: "loss"
  type: "SoftmaxWithLoss"
  bottom: "ip2"
  bottom: "label"
  top: "loss"
}
I1206 10:47:15.933269  3037 layer_factory.hpp:77] Creating layer mnist
I1206 10:47:15.933576  3037 net.cpp:100] Creating Layer mnist
I1206 10:47:15.933714  3037 net.cpp:408] mnist -> data
I1206 10:47:15.933776  3037 net.cpp:408] mnist -> label
I1206 10:47:15.934852  3046 db_lmdb.cpp:35] Opened lmdb examples/mnist/mnist_test_lmdb
I1206 10:47:15.935214  3037 data_layer.cpp:41] output data size: 100,1,28,28
I1206 10:47:15.939843  3037 net.cpp:150] Setting up mnist
I1206 10:47:15.939908  3037 net.cpp:157] Top shape: 100 1 28 28 (78400)
I1206 10:47:15.939960  3037 net.cpp:157] Top shape: 100 (100)
I1206 10:47:15.939999  3037 net.cpp:165] Memory required for data: 314000
I1206 10:47:15.940033  3037 layer_factory.hpp:77] Creating layer label_mnist_1_split
I1206 10:47:15.940083  3037 net.cpp:100] Creating Layer label_mnist_1_split
I1206 10:47:15.940119  3037 net.cpp:434] label_mnist_1_split <- label
I1206 10:47:15.940160  3037 net.cpp:408] label_mnist_1_split -> label_mnist_1_split_0
I1206 10:47:15.940210  3037 net.cpp:408] label_mnist_1_split -> label_mnist_1_split_1
I1206 10:47:15.940366  3037 net.cpp:150] Setting up label_mnist_1_split
I1206 10:47:15.940402  3037 net.cpp:157] Top shape: 100 (100)
I1206 10:47:15.940435  3037 net.cpp:157] Top shape: 100 (100)
I1206 10:47:15.940467  3037 net.cpp:165] Memory required for data: 314800
I1206 10:47:15.940500  3037 layer_factory.hpp:77] Creating layer conv1
I1206 10:47:15.940548  3037 net.cpp:100] Creating Layer conv1
I1206 10:47:15.940578  3037 net.cpp:434] conv1 <- data
I1206 10:47:15.940615  3037 net.cpp:408] conv1 -> conv1
I1206 10:47:15.953197  3037 net.cpp:150] Setting up conv1
I1206 10:47:15.953269  3037 net.cpp:157] Top shape: 100 20 24 24 (1152000)
I1206 10:47:15.953379  3037 net.cpp:165] Memory required for data: 4922800
I1206 10:47:15.953441  3037 layer_factory.hpp:77] Creating layer pool1
I1206 10:47:15.953495  3037 net.cpp:100] Creating Layer pool1
I1206 10:47:15.953527  3037 net.cpp:434] pool1 <- conv1
I1206 10:47:15.953565  3037 net.cpp:408] pool1 -> pool1
I1206 10:47:15.953759  3037 net.cpp:150] Setting up pool1
I1206 10:47:15.953795  3037 net.cpp:157] Top shape: 100 20 12 12 (288000)
I1206 10:47:15.953836  3037 net.cpp:165] Memory required for data: 6074800
I1206 10:47:15.953866  3037 layer_factory.hpp:77] Creating layer conv2
I1206 10:47:15.953924  3037 net.cpp:100] Creating Layer conv2
I1206 10:47:15.953958  3037 net.cpp:434] conv2 <- pool1
I1206 10:47:15.954000  3037 net.cpp:408] conv2 -> conv2
I1206 10:47:15.962731  3037 net.cpp:150] Setting up conv2
I1206 10:47:15.962807  3037 net.cpp:157] Top shape: 100 50 8 8 (320000)
I1206 10:47:15.962855  3037 net.cpp:165] Memory required for data: 7354800
I1206 10:47:15.962914  3037 layer_factory.hpp:77] Creating layer pool2
I1206 10:47:15.962978  3037 net.cpp:100] Creating Layer pool2
I1206 10:47:15.963016  3037 net.cpp:434] pool2 <- conv2
I1206 10:47:15.963055  3037 net.cpp:408] pool2 -> pool2
I1206 10:47:15.963256  3037 net.cpp:150] Setting up pool2
I1206 10:47:15.963294  3037 net.cpp:157] Top shape: 100 50 4 4 (80000)
I1206 10:47:15.963333  3037 net.cpp:165] Memory required for data: 7674800
I1206 10:47:15.963372  3037 layer_factory.hpp:77] Creating layer ip1
I1206 10:47:15.963420  3037 net.cpp:100] Creating Layer ip1
I1206 10:47:15.963457  3037 net.cpp:434] ip1 <- pool2
I1206 10:47:15.963505  3037 net.cpp:408] ip1 -> ip1
I1206 10:47:15.965844  3037 net.cpp:150] Setting up ip1
I1206 10:47:15.965920  3037 net.cpp:157] Top shape: 100 500 (50000)
I1206 10:47:15.965960  3037 net.cpp:165] Memory required for data: 7874800
I1206 10:47:15.966006  3037 layer_factory.hpp:77] Creating layer relu1
I1206 10:47:15.966063  3037 net.cpp:100] Creating Layer relu1
I1206 10:47:15.966101  3037 net.cpp:434] relu1 <- ip1
I1206 10:47:15.966143  3037 net.cpp:395] relu1 -> ip1 (in-place)
I1206 10:47:15.968600  3037 net.cpp:150] Setting up relu1
I1206 10:47:15.968653  3037 net.cpp:157] Top shape: 100 500 (50000)
I1206 10:47:15.968699  3037 net.cpp:165] Memory required for data: 8074800
I1206 10:47:15.968735  3037 layer_factory.hpp:77] Creating layer ip2
I1206 10:47:15.968791  3037 net.cpp:100] Creating Layer ip2
I1206 10:47:15.968832  3037 net.cpp:434] ip2 <- ip1
I1206 10:47:15.968878  3037 net.cpp:408] ip2 -> ip2
I1206 10:47:15.969336  3037 net.cpp:150] Setting up ip2
I1206 10:47:15.969375  3037 net.cpp:157] Top shape: 100 10 (1000)
I1206 10:47:15.969414  3037 net.cpp:165] Memory required for data: 8078800
I1206 10:47:15.969458  3037 layer_factory.hpp:77] Creating layer ip2_ip2_0_split
I1206 10:47:15.969509  3037 net.cpp:100] Creating Layer ip2_ip2_0_split
I1206 10:47:15.969570  3037 net.cpp:434] ip2_ip2_0_split <- ip2
I1206 10:47:15.969611  3037 net.cpp:408] ip2_ip2_0_split -> ip2_ip2_0_split_0
I1206 10:47:15.969658  3037 net.cpp:408] ip2_ip2_0_split -> ip2_ip2_0_split_1
I1206 10:47:15.969820  3037 net.cpp:150] Setting up ip2_ip2_0_split
I1206 10:47:15.969862  3037 net.cpp:157] Top shape: 100 10 (1000)
I1206 10:47:15.969900  3037 net.cpp:157] Top shape: 100 10 (1000)
I1206 10:47:15.969933  3037 net.cpp:165] Memory required for data: 8086800
I1206 10:47:15.969971  3037 layer_factory.hpp:77] Creating layer accuracy
I1206 10:47:15.970026  3037 net.cpp:100] Creating Layer accuracy
I1206 10:47:15.970062  3037 net.cpp:434] accuracy <- ip2_ip2_0_split_0
I1206 10:47:15.970098  3037 net.cpp:434] accuracy <- label_mnist_1_split_0
I1206 10:47:15.970140  3037 net.cpp:408] accuracy -> accuracy
…
