…
I1205 21:13:20.794796  1846 net.cpp:322] The NetState phase (0) differed from the phase (1) specified by a rule in layer mnist
I1205 21:13:20.794909  1846 net.cpp:322] The NetState phase (0) differed from the phase (1) specified by a rule in layer accuracy
I1205 21:13:20.794993  1846 net.cpp:58] Initializing net from parameters: 
name: "LeNet"
state {
  phase: TRAIN
  level: 0
  stage: ""
}
layer {
  name: "mnist"
  type: "Data"
  top: "data"
  top: "label"
  include {
    phase: TRAIN
  }
  transform_param {
    scale: 0.00390625
  }
  data_param {
    source: "examples/mnist/mnist_train_lmdb"
    batch_size: 64
    backend: LMDB
  }
}
layer {
  name: "conv1"
  type: "Convolution"
  bottom: "data"
  top: "conv1"
  param {
    lr_mult: 1
  }
  param {
    lr_mult: 2
  }
  convolution_param {
    num_output: 20
    kernel_size: 5
    stride: 1
    weight_filler {
      type: "xavier"
    }
    bias_filler {
      type: "constant"
    }
  }
}
layer {
  name: "pool1"
  type: "Pooling"
  bottom: "conv1"
  top: "pool1"
  pooling_param {
    pool: MAX
    kernel_size: 2
    stride: 2
  }
}
layer {
  name: "conv2"
  type: "Convolution"
  bottom: "pool1"
  top: "conv2"
  param {
    lr_mult: 1
  }
  param {
    lr_mult: 2
  }
  convolution_param {
    num_output: 50
    kernel_size: 5
    stride: 1
    weight_filler {
      type: "xavier"
    }
    bias_filler {
      type: "constant"
    }
  }
}
layer {
  name: "pool2"
  type: "Pooling"
  bottom: "conv2"
  top: "pool2"
  pooling_param {
    pool: MAX
    kernel_size: 2
    stride: 2
  }
}
layer {
  name: "ip1"
  type: "InnerProduct"
  bottom: "pool2"
  top: "ip1"
  param {
    lr_mult: 1
  }
  param {
    lr_mult: 2
  }
  inner_product_param {
    num_output: 500
    weight_filler {
      type: "xavier"
    }
    bias_filler {
      type: "constant"
    }
  }
}
layer {
  name: "relu1"
  type: "ReLU"
  bottom: "ip1"
  top: "ip1"
}
layer {
  name: "ip2"
  type: "InnerProduct"
  bottom: "ip1"
  top: "ip2"
  param {
    lr_mult: 1
  }
  param {
    lr_mult: 2
  }
  inner_product_param {
    num_output: 10
    weight_filler {
      type: "xavier"
    }
    bias_filler {
      type: "constant"
    }
  }
}
layer {
  name: "loss"
  type: "SoftmaxWithLoss"
  bottom: "ip2"
  bottom: "label"
  top: "loss"
}
I1205 21:13:20.798377  1846 layer_factory.hpp:77] Creating layer mnist
I1205 21:13:20.799859  1846 net.cpp:100] Creating Layer mnist
I1205 21:13:20.799952  1846 net.cpp:408] mnist -> data
I1205 21:13:20.800092  1846 net.cpp:408] mnist -> label
I1205 21:13:20.801601  1854 db_lmdb.cpp:35] Opened lmdb examples/mnist/mnist_train_lmdb
I1205 21:13:20.910065  1846 data_layer.cpp:41] output data size: 64,1,28,28
I1205 21:13:20.913354  1846 net.cpp:150] Setting up mnist
I1205 21:13:20.913422  1846 net.cpp:157] Top shape: 64 1 28 28 (50176)
I1205 21:13:20.913487  1846 net.cpp:157] Top shape: 64 (64)
I1205 21:13:20.913527  1846 net.cpp:165] Memory required for data: 200960
I1205 21:13:20.913573  1846 layer_factory.hpp:77] Creating layer conv1
I1205 21:13:20.913657  1846 net.cpp:100] Creating Layer conv1
I1205 21:13:20.913704  1846 net.cpp:434] conv1 <- data
I1205 21:13:20.913758  1846 net.cpp:408] conv1 -> conv1
I1205 21:13:22.234319  1846 net.cpp:150] Setting up conv1
I1205 21:13:22.234401  1846 net.cpp:157] Top shape: 64 20 24 24 (737280)
I1205 21:13:22.234452  1846 net.cpp:165] Memory required for data: 3150080
I1205 21:13:22.234526  1846 layer_factory.hpp:77] Creating layer pool1
I1205 21:13:22.234581  1846 net.cpp:100] Creating Layer pool1
I1205 21:13:22.234678  1846 net.cpp:434] pool1 <- conv1
I1205 21:13:22.234721  1846 net.cpp:408] pool1 -> pool1
I1205 21:13:22.234896  1846 net.cpp:150] Setting up pool1
I1205 21:13:22.234935  1846 net.cpp:157] Top shape: 64 20 12 12 (184320)
I1205 21:13:22.234974  1846 net.cpp:165] Memory required for data: 3887360
I1205 21:13:22.235008  1846 layer_factory.hpp:77] Creating layer conv2
I1205 21:13:22.235059  1846 net.cpp:100] Creating Layer conv2
I1205 21:13:22.235090  1846 net.cpp:434] conv2 <- pool1
I1205 21:13:22.235128  1846 net.cpp:408] conv2 -> conv2
I1205 21:13:22.240759  1846 net.cpp:150] Setting up conv2
I1205 21:13:22.240825  1846 net.cpp:157] Top shape: 64 50 8 8 (204800)
I1205 21:13:22.240871  1846 net.cpp:165] Memory required for data: 4706560
I1205 21:13:22.240921  1846 layer_factory.hpp:77] Creating layer pool2
I1205 21:13:22.240967  1846 net.cpp:100] Creating Layer pool2
I1205 21:13:22.241001  1846 net.cpp:434] pool2 <- conv2
I1205 21:13:22.241040  1846 net.cpp:408] pool2 -> pool2
I1205 21:13:22.241189  1846 net.cpp:150] Setting up pool2
I1205 21:13:22.241225  1846 net.cpp:157] Top shape: 64 50 4 4 (51200)
I1205 21:13:22.241261  1846 net.cpp:165] Memory required for data: 4911360
I1205 21:13:22.241293  1846 layer_factory.hpp:77] Creating layer ip1
I1205 21:13:22.241341  1846 net.cpp:100] Creating Layer ip1
I1205 21:13:22.241375  1846 net.cpp:434] ip1 <- pool2
I1205 21:13:22.241415  1846 net.cpp:408] ip1 -> ip1
I1205 21:13:22.247149  1846 net.cpp:150] Setting up ip1
I1205 21:13:22.247210  1846 net.cpp:157] Top shape: 64 500 (32000)
I1205 21:13:22.247249  1846 net.cpp:165] Memory required for data: 5039360
I1205 21:13:22.247305  1846 layer_factory.hpp:77] Creating layer relu1
I1205 21:13:22.247359  1846 net.cpp:100] Creating Layer relu1
I1205 21:13:22.247398  1846 net.cpp:434] relu1 <- ip1
I1205 21:13:22.247438  1846 net.cpp:395] relu1 -> ip1 (in-place)
I1205 21:13:22.249629  1846 net.cpp:150] Setting up relu1
I1205 21:13:22.249704  1846 net.cpp:157] Top shape: 64 500 (32000)
I1205 21:13:22.249743  1846 net.cpp:165] Memory required for data: 5167360
I1205 21:13:22.249778  1846 layer_factory.hpp:77] Creating layer ip2
I1205 21:13:22.249825  1846 net.cpp:100] Creating Layer ip2
I1205 21:13:22.249862  1846 net.cpp:434] ip2 <- ip1
I1205 21:13:22.249907  1846 net.cpp:408] ip2 -> ip2
I1205 21:13:22.250830  1846 net.cpp:150] Setting up ip2
I1205 21:13:22.250893  1846 net.cpp:157] Top shape: 64 10 (640)
I1205 21:13:22.250931  1846 net.cpp:165] Memory required for data: 5169920
I1205 21:13:22.250977  1846 layer_factory.hpp:77] Creating layer loss
I1205 21:13:22.251032  1846 net.cpp:100] Creating Layer loss
I1205 21:13:22.251070  1846 net.cpp:434] loss <- ip2
I1205 21:13:22.251114  1846 net.cpp:434] loss <- label
I1205 21:13:22.251154  1846 net.cpp:408] loss -> loss
I1205 21:13:22.251232  1846 layer_factory.hpp:77] Creating layer loss
…
I1205 21:13:22.254441  1846 solver.cpp:193] Creating test net (#0) specified by net file: examples/mnist/lenet_train_test.prototxt
I1205 21:13:22.254588  1846 net.cpp:322] The NetState phase (1) differed from the phase (0) specified by a rule in layer mnist
I1205 21:13:22.254644  1846 net.cpp:58] Initializing net from parameters: 
name: "LeNet"
state {
  phase: TEST
}
layer {
  name: "mnist"
  type: "Data"
  top: "data"
  top: "label"
  include {
    phase: TEST
  }
  transform_param {
    scale: 0.00390625
  }
  data_param {
    source: "examples/mnist/mnist_test_lmdb"
    batch_size: 100
    backend: LMDB
  }
}
layer {
  name: "conv1"
  type: "Convolution"
  bottom: "data"
  top: "conv1"
  param {
    lr_mult: 1
  }
  param {
    lr_mult: 2
  }
  convolution_param {
    num_output: 20
    kernel_size: 5
    stride: 1
    weight_filler {
      type: "xavier"
    }
    bias_filler {
      type: "constant"
    }
  }
}
layer {
  name: "pool1"
  type: "Pooling"
  bottom: "conv1"
  top: "pool1"
  pooling_param {
    pool: MAX
    kernel_size: 2
    stride: 2
  }
}
layer {
  name: "conv2"
  type: "Convolution"
  bottom: "pool1"
  top: "conv2"
  param {
    lr_mult: 1
  }
  param {
    lr_mult: 2
  }
  convolution_param {
    num_output: 50
    kernel_size: 5
    stride: 1
    weight_filler {
      type: "xavier"
    }
    bias_filler {
      type: "constant"
    }
  }
}
layer {
  name: "pool2"
  type: "Pooling"
  bottom: "conv2"
  top: "pool2"
  pooling_param {
    pool: MAX
    kernel_size: 2
    stride: 2
  }
}
layer {
  name: "ip1"
  type: "InnerProduct"
  bottom: "pool2"
  top: "ip1"
  param {
    lr_mult: 1
  }
  param {
    lr_mult: 2
  }
  inner_product_param {
    num_output: 500
    weight_filler {
      type: "xavier"
    }
    bias_filler {
      type: "constant"
    }
  }
}
layer {
  name: "relu1"
  type: "ReLU"
  bottom: "ip1"
  top: "ip1"
}
layer {
  name: "ip2"
  type: "InnerProduct"
  bottom: "ip1"
  top: "ip2"
  param {
    lr_mult: 1
  }
  param {
    lr_mult: 2
  }
  inner_product_param {
    num_output: 10
    weight_filler {
      type: "xavier"
    }
    bias_filler {
      type: "constant"
    }
  }
}
layer {
  name: "accuracy"
  type: "Accuracy"
  bottom: "ip2"
  bottom: "label"
  top: "accuracy"
  include {
    phase: TEST
  }
}
layer {
  name: "loss"
  type: "SoftmaxWithLoss"
  bottom: "ip2"
  bottom: "label"
  top: "loss"
}
I1205 21:13:22.257349  1846 layer_factory.hpp:77] Creating layer mnist
I1205 21:13:22.257623  1846 net.cpp:100] Creating Layer mnist
I1205 21:13:22.257678  1846 net.cpp:408] mnist -> data
I1205 21:13:22.257730  1846 net.cpp:408] mnist -> label
I1205 21:13:22.258893  1856 db_lmdb.cpp:35] Opened lmdb examples/mnist/mnist_test_lmdb
I1205 21:13:22.259246  1846 data_layer.cpp:41] output data size: 100,1,28,28
I1205 21:13:22.281072  1846 net.cpp:150] Setting up mnist
I1205 21:13:22.281150  1846 net.cpp:157] Top shape: 100 1 28 28 (78400)
I1205 21:13:22.281199  1846 net.cpp:157] Top shape: 100 (100)
I1205 21:13:22.281253  1846 net.cpp:165] Memory required for data: 314000
I1205 21:13:22.281293  1846 layer_factory.hpp:77] Creating layer label_mnist_1_split
I1205 21:13:22.281347  1846 net.cpp:100] Creating Layer label_mnist_1_split
I1205 21:13:22.281383  1846 net.cpp:434] label_mnist_1_split <- label
I1205 21:13:22.281431  1846 net.cpp:408] label_mnist_1_split -> label_mnist_1_split_0
I1205 21:13:22.281486  1846 net.cpp:408] label_mnist_1_split -> label_mnist_1_split_1
I1205 21:13:22.281765  1846 net.cpp:150] Setting up label_mnist_1_split
I1205 21:13:22.281812  1846 net.cpp:157] Top shape: 100 (100)
I1205 21:13:22.281852  1846 net.cpp:157] Top shape: 100 (100)
I1205 21:13:22.281883  1846 net.cpp:165] Memory required for data: 314800
I1205 21:13:22.281918  1846 layer_factory.hpp:77] Creating layer conv1
I1205 21:13:22.281971  1846 net.cpp:100] Creating Layer conv1
I1205 21:13:22.282001  1846 net.cpp:434] conv1 <- data
I1205 21:13:22.282043  1846 net.cpp:408] conv1 -> conv1
I1205 21:13:22.289158  1846 net.cpp:150] Setting up conv1
I1205 21:13:22.289221  1846 net.cpp:157] Top shape: 100 20 24 24 (1152000)
I1205 21:13:22.289275  1846 net.cpp:165] Memory required for data: 4922800
I1205 21:13:22.289327  1846 layer_factory.hpp:77] Creating layer pool1
I1205 21:13:22.289430  1846 net.cpp:100] Creating Layer pool1
I1205 21:13:22.289463  1846 net.cpp:434] pool1 <- conv1
I1205 21:13:22.289511  1846 net.cpp:408] pool1 -> pool1
I1205 21:13:22.289705  1846 net.cpp:150] Setting up pool1
I1205 21:13:22.289746  1846 net.cpp:157] Top shape: 100 20 12 12 (288000)
I1205 21:13:22.289786  1846 net.cpp:165] Memory required for data: 6074800
I1205 21:13:22.289816  1846 layer_factory.hpp:77] Creating layer conv2
I1205 21:13:22.289877  1846 net.cpp:100] Creating Layer conv2
I1205 21:13:22.289911  1846 net.cpp:434] conv2 <- pool1
I1205 21:13:22.289952  1846 net.cpp:408] conv2 -> conv2
I1205 21:13:22.296669  1846 net.cpp:150] Setting up conv2
I1205 21:13:22.296816  1846 net.cpp:157] Top shape: 100 50 8 8 (320000)
I1205 21:13:22.296867  1846 net.cpp:165] Memory required for data: 7354800
I1205 21:13:22.296921  1846 layer_factory.hpp:77] Creating layer pool2
I1205 21:13:22.296977  1846 net.cpp:100] Creating Layer pool2
I1205 21:13:22.297014  1846 net.cpp:434] pool2 <- conv2
I1205 21:13:22.297056  1846 net.cpp:408] pool2 -> pool2
I1205 21:13:22.297269  1846 net.cpp:150] Setting up pool2
I1205 21:13:22.297313  1846 net.cpp:157] Top shape: 100 50 4 4 (80000)
I1205 21:13:22.297350  1846 net.cpp:165] Memory required for data: 7674800
I1205 21:13:22.297382  1846 layer_factory.hpp:77] Creating layer ip1
I1205 21:13:22.297487  1846 net.cpp:100] Creating Layer ip1
I1205 21:13:22.297523  1846 net.cpp:434] ip1 <- pool2
I1205 21:13:22.297567  1846 net.cpp:408] ip1 -> ip1
I1205 21:13:22.303365  1846 net.cpp:150] Setting up ip1
I1205 21:13:22.303427  1846 net.cpp:157] Top shape: 100 500 (50000)
I1205 21:13:22.303464  1846 net.cpp:165] Memory required for data: 7874800
I1205 21:13:22.303510  1846 layer_factory.hpp:77] Creating layer relu1
I1205 21:13:22.303550  1846 net.cpp:100] Creating Layer relu1
I1205 21:13:22.303580  1846 net.cpp:434] relu1 <- ip1
I1205 21:13:22.303616  1846 net.cpp:395] relu1 -> ip1 (in-place)
I1205 21:13:22.305483  1846 net.cpp:150] Setting up relu1
I1205 21:13:22.305544  1846 net.cpp:157] Top shape: 100 500 (50000)
I1205 21:13:22.305583  1846 net.cpp:165] Memory required for data: 8074800
I1205 21:13:22.305618  1846 layer_factory.hpp:77] Creating layer ip2
I1205 21:13:22.305680  1846 net.cpp:100] Creating Layer ip2
I1205 21:13:22.305717  1846 net.cpp:434] ip2 <- ip1
I1205 21:13:22.305760  1846 net.cpp:408] ip2 -> ip2
I1205 21:13:22.306347  1846 net.cpp:150] Setting up ip2
I1205 21:13:22.306401  1846 net.cpp:157] Top shape: 100 10 (1000)
I1205 21:13:22.306437  1846 net.cpp:165] Memory required for data: 8078800
I1205 21:13:22.306475  1846 layer_factory.hpp:77] Creating layer ip2_ip2_0_split
I1205 21:13:22.306515  1846 net.cpp:100] Creating Layer ip2_ip2_0_split
I1205 21:13:22.306545  1846 net.cpp:434] ip2_ip2_0_split <- ip2
I1205 21:13:22.306587  1846 net.cpp:408] ip2_ip2_0_split -> ip2_ip2_0_split_0
I1205 21:13:22.306628  1846 net.cpp:408] ip2_ip2_0_split -> ip2_ip2_0_split_1
I1205 21:13:22.306788  1846 net.cpp:150] Setting up ip2_ip2_0_split
I1205 21:13:22.306823  1846 net.cpp:157] Top shape: 100 10 (1000)
I1205 21:13:22.306855  1846 net.cpp:157] Top shape: 100 10 (1000)
I1205 21:13:22.306885  1846 net.cpp:165] Memory required for data: 8086800
I1205 21:13:22.306913  1846 layer_factory.hpp:77] Creating layer accuracy
I1205 21:13:22.306958  1846 net.cpp:100] Creating Layer accuracy
I1205 21:13:22.306989  1846 net.cpp:434] accuracy <- ip2_ip2_0_split_0
I1205 21:13:22.307021  1846 net.cpp:434] accuracy <- label_mnist_1_split_0
I1205 21:13:22.307061  1846 net.cpp:408] accuracy -> accuracy
…
