…
I1206 10:40:46.084508  2840 net.cpp:322] The NetState phase (0) differed from the phase (1) specified by a rule in layer mnist
I1206 10:40:46.084628  2840 net.cpp:322] The NetState phase (0) differed from the phase (1) specified by a rule in layer accuracy
I1206 10:40:46.084710  2840 net.cpp:58] Initializing net from parameters: 
name: "LeNet"
state {
  phase: TRAIN
  level: 0
  stage: ""
}
layer {
  name: "mnist"
  type: "Data"
  top: "data"
  top: "label"
  include {
    phase: TRAIN
  }
  transform_param {
    scale: 0.00390625
  }
  data_param {
    source: "examples/mnist/mnist_train_lmdb"
    batch_size: 64
    backend: LMDB
  }
}
layer {
  name: "conv1"
  type: "Convolution"
  bottom: "data"
  top: "conv1"
  param {
    lr_mult: 1
  }
  param {
    lr_mult: 2
  }
  convolution_param {
    num_output: 20
    kernel_size: 5
    stride: 1
    weight_filler {
      type: "gaussian"
      std: 1
    }
    bias_filler {
      type: "constant"
    }
  }
}
layer {
  name: "pool1"
  type: "Pooling"
  bottom: "conv1"
  top: "pool1"
  pooling_param {
    pool: MAX
    kernel_size: 2
    stride: 2
  }
}
layer {
  name: "conv2"
  type: "Convolution"
  bottom: "pool1"
  top: "conv2"
  param {
    lr_mult: 1
  }
  param {
    lr_mult: 2
  }
  convolution_param {
    num_output: 50
    kernel_size: 5
    stride: 1
    weight_filler {
      type: "gaussian"
      std: 1
    }
    bias_filler {
      type: "constant"
    }
  }
}
layer {
  name: "pool2"
  type: "Pooling"
  bottom: "conv2"
  top: "pool2"
  pooling_param {
    pool: MAX
    kernel_size: 2
    stride: 2
  }
}
layer {
  name: "ip1"
  type: "InnerProduct"
  bottom: "pool2"
  top: "ip1"
  param {
    lr_mult: 1
  }
  param {
    lr_mult: 2
  }
  inner_product_param {
    num_output: 500
    weight_filler {
      type: "gaussian"
      std: 1
    }
    bias_filler {
      type: "constant"
    }
  }
}
layer {
  name: "relu1"
  type: "ReLU"
  bottom: "ip1"
  top: "ip1"
}
layer {
  name: "ip2"
  type: "InnerProduct"
  bottom: "ip1"
  top: "ip2"
  param {
    lr_mult: 1
  }
  param {
    lr_mult: 2
  }
  inner_product_param {
    num_output: 10
    weight_filler {
      type: "gaussian"
      std: 1
    }
    bias_filler {
      type: "constant"
    }
  }
}
layer {
  name: "loss"
  type: "SoftmaxWithLoss"
  bottom: "ip2"
  bottom: "label"
  top: "loss"
}
I1206 10:40:46.087949  2840 layer_factory.hpp:77] Creating layer mnist
I1206 10:40:46.089442  2840 net.cpp:100] Creating Layer mnist
I1206 10:40:46.089536  2840 net.cpp:408] mnist -> data
I1206 10:40:46.089673  2840 net.cpp:408] mnist -> label
I1206 10:40:46.092778  2848 db_lmdb.cpp:35] Opened lmdb examples/mnist/mnist_train_lmdb
I1206 10:40:46.250336  2840 data_layer.cpp:41] output data size: 64,1,28,28
I1206 10:40:46.254412  2840 net.cpp:150] Setting up mnist
I1206 10:40:46.254483  2840 net.cpp:157] Top shape: 64 1 28 28 (50176)
I1206 10:40:46.254552  2840 net.cpp:157] Top shape: 64 (64)
I1206 10:40:46.254595  2840 net.cpp:165] Memory required for data: 200960
I1206 10:40:46.254644  2840 layer_factory.hpp:77] Creating layer conv1
I1206 10:40:46.254736  2840 net.cpp:100] Creating Layer conv1
I1206 10:40:46.254783  2840 net.cpp:434] conv1 <- data
I1206 10:40:46.254842  2840 net.cpp:408] conv1 -> conv1
I1206 10:40:47.635625  2840 net.cpp:150] Setting up conv1
I1206 10:40:47.635699  2840 net.cpp:157] Top shape: 64 20 24 24 (737280)
I1206 10:40:47.635799  2840 net.cpp:165] Memory required for data: 3150080
I1206 10:40:47.635880  2840 layer_factory.hpp:77] Creating layer pool1
I1206 10:40:47.636003  2840 net.cpp:100] Creating Layer pool1
I1206 10:40:47.636046  2840 net.cpp:434] pool1 <- conv1
I1206 10:40:47.636090  2840 net.cpp:408] pool1 -> pool1
I1206 10:40:47.636276  2840 net.cpp:150] Setting up pool1
I1206 10:40:47.636313  2840 net.cpp:157] Top shape: 64 20 12 12 (184320)
I1206 10:40:47.636353  2840 net.cpp:165] Memory required for data: 3887360
I1206 10:40:47.636389  2840 layer_factory.hpp:77] Creating layer conv2
I1206 10:40:47.636435  2840 net.cpp:100] Creating Layer conv2
I1206 10:40:47.636471  2840 net.cpp:434] conv2 <- pool1
I1206 10:40:47.636515  2840 net.cpp:408] conv2 -> conv2
I1206 10:40:47.642520  2840 net.cpp:150] Setting up conv2
I1206 10:40:47.642576  2840 net.cpp:157] Top shape: 64 50 8 8 (204800)
I1206 10:40:47.642619  2840 net.cpp:165] Memory required for data: 4706560
I1206 10:40:47.642674  2840 layer_factory.hpp:77] Creating layer pool2
I1206 10:40:47.642721  2840 net.cpp:100] Creating Layer pool2
I1206 10:40:47.642752  2840 net.cpp:434] pool2 <- conv2
I1206 10:40:47.642793  2840 net.cpp:408] pool2 -> pool2
I1206 10:40:47.642953  2840 net.cpp:150] Setting up pool2
I1206 10:40:47.642990  2840 net.cpp:157] Top shape: 64 50 4 4 (51200)
I1206 10:40:47.643029  2840 net.cpp:165] Memory required for data: 4911360
I1206 10:40:47.643064  2840 layer_factory.hpp:77] Creating layer ip1
I1206 10:40:47.643112  2840 net.cpp:100] Creating Layer ip1
I1206 10:40:47.643147  2840 net.cpp:434] ip1 <- pool2
I1206 10:40:47.643183  2840 net.cpp:408] ip1 -> ip1
I1206 10:40:47.652856  2840 net.cpp:150] Setting up ip1
I1206 10:40:47.652927  2840 net.cpp:157] Top shape: 64 500 (32000)
I1206 10:40:47.652973  2840 net.cpp:165] Memory required for data: 5039360
I1206 10:40:47.653030  2840 layer_factory.hpp:77] Creating layer relu1
I1206 10:40:47.653087  2840 net.cpp:100] Creating Layer relu1
I1206 10:40:47.653125  2840 net.cpp:434] relu1 <- ip1
I1206 10:40:47.653174  2840 net.cpp:395] relu1 -> ip1 (in-place)
I1206 10:40:47.655189  2840 net.cpp:150] Setting up relu1
I1206 10:40:47.655252  2840 net.cpp:157] Top shape: 64 500 (32000)
I1206 10:40:47.655294  2840 net.cpp:165] Memory required for data: 5167360
I1206 10:40:47.655388  2840 layer_factory.hpp:77] Creating layer ip2
I1206 10:40:47.655433  2840 net.cpp:100] Creating Layer ip2
I1206 10:40:47.655463  2840 net.cpp:434] ip2 <- ip1
I1206 10:40:47.655499  2840 net.cpp:408] ip2 -> ip2
I1206 10:40:47.656497  2840 net.cpp:150] Setting up ip2
I1206 10:40:47.656551  2840 net.cpp:157] Top shape: 64 10 (640)
I1206 10:40:47.656594  2840 net.cpp:165] Memory required for data: 5169920
I1206 10:40:47.656635  2840 layer_factory.hpp:77] Creating layer loss
I1206 10:40:47.656687  2840 net.cpp:100] Creating Layer loss
I1206 10:40:47.656728  2840 net.cpp:434] loss <- ip2
I1206 10:40:47.656765  2840 net.cpp:434] loss <- label
I1206 10:40:47.656805  2840 net.cpp:408] loss -> loss
I1206 10:40:47.656873  2840 layer_factory.hpp:77] Creating layer loss
…
I1206 10:40:47.659935  2840 solver.cpp:193] Creating test net (#0) specified by net file: examples/mnist/lenet_train_test.prototxt
I1206 10:40:47.660085  2840 net.cpp:322] The NetState phase (1) differed from the phase (0) specified by a rule in layer mnist
I1206 10:40:47.660138  2840 net.cpp:58] Initializing net from parameters: 
name: "LeNet"
state {
  phase: TEST
}
layer {
  name: "mnist"
  type: "Data"
  top: "data"
  top: "label"
  include {
    phase: TEST
  }
  transform_param {
    scale: 0.00390625
  }
  data_param {
    source: "examples/mnist/mnist_test_lmdb"
    batch_size: 100
    backend: LMDB
  }
}
layer {
  name: "conv1"
  type: "Convolution"
  bottom: "data"
  top: "conv1"
  param {
    lr_mult: 1
  }
  param {
    lr_mult: 2
  }
  convolution_param {
    num_output: 20
    kernel_size: 5
    stride: 1
    weight_filler {
      type: "gaussian"
      std: 1
    }
    bias_filler {
      type: "constant"
    }
  }
}
layer {
  name: "pool1"
  type: "Pooling"
  bottom: "conv1"
  top: "pool1"
  pooling_param {
    pool: MAX
    kernel_size: 2
    stride: 2
  }
}
layer {
  name: "conv2"
  type: "Convolution"
  bottom: "pool1"
  top: "conv2"
  param {
    lr_mult: 1
  }
  param {
    lr_mult: 2
  }
  convolution_param {
    num_output: 50
    kernel_size: 5
    stride: 1
    weight_filler {
      type: "gaussian"
      std: 1
    }
    bias_filler {
      type: "constant"
    }
  }
}
layer {
  name: "pool2"
  type: "Pooling"
  bottom: "conv2"
  top: "pool2"
  pooling_param {
    pool: MAX
    kernel_size: 2
    stride: 2
  }
}
layer {
  name: "ip1"
  type: "InnerProduct"
  bottom: "pool2"
  top: "ip1"
  param {
    lr_mult: 1
  }
  param {
    lr_mult: 2
  }
  inner_product_param {
    num_output: 500
    weight_filler {
      type: "gaussian"
      std: 1
    }
    bias_filler {
      type: "constant"
    }
  }
}
layer {
  name: "relu1"
  type: "ReLU"
  bottom: "ip1"
  top: "ip1"
}
layer {
  name: "ip2"
  type: "InnerProduct"
  bottom: "ip1"
  top: "ip2"
  param {
    lr_mult: 1
  }
  param {
    lr_mult: 2
  }
  inner_product_param {
    num_output: 10
    weight_filler {
      type: "gaussian"
      std: 1
    }
    bias_filler {
      type: "constant"
    }
  }
}
layer {
  name: "accuracy"
  type: "Accuracy"
  bottom: "ip2"
  bottom: "label"
  top: "accuracy"
  include {
    phase: TEST
  }
}
layer {
  name: "loss"
  type: "SoftmaxWithLoss"
  bottom: "ip2"
  bottom: "label"
  top: "loss"
}
I1206 10:40:47.662611  2840 layer_factory.hpp:77] Creating layer mnist
I1206 10:40:47.662894  2840 net.cpp:100] Creating Layer mnist
I1206 10:40:47.662952  2840 net.cpp:408] mnist -> data
I1206 10:40:47.663002  2840 net.cpp:408] mnist -> label
I1206 10:40:47.665906  2850 db_lmdb.cpp:35] Opened lmdb examples/mnist/mnist_test_lmdb
I1206 10:40:47.671838  2840 data_layer.cpp:41] output data size: 100,1,28,28
I1206 10:40:47.685292  2840 net.cpp:150] Setting up mnist
I1206 10:40:47.685384  2840 net.cpp:157] Top shape: 100 1 28 28 (78400)
I1206 10:40:47.685446  2840 net.cpp:157] Top shape: 100 (100)
I1206 10:40:47.685508  2840 net.cpp:165] Memory required for data: 314000
I1206 10:40:47.685557  2840 layer_factory.hpp:77] Creating layer label_mnist_1_split
I1206 10:40:47.685627  2840 net.cpp:100] Creating Layer label_mnist_1_split
I1206 10:40:47.685678  2840 net.cpp:434] label_mnist_1_split <- label
I1206 10:40:47.685740  2840 net.cpp:408] label_mnist_1_split -> label_mnist_1_split_0
I1206 10:40:47.685820  2840 net.cpp:408] label_mnist_1_split -> label_mnist_1_split_1
I1206 10:40:47.686063  2840 net.cpp:150] Setting up label_mnist_1_split
I1206 10:40:47.686118  2840 net.cpp:157] Top shape: 100 (100)
I1206 10:40:47.686167  2840 net.cpp:157] Top shape: 100 (100)
I1206 10:40:47.686213  2840 net.cpp:165] Memory required for data: 314800
I1206 10:40:47.686259  2840 layer_factory.hpp:77] Creating layer conv1
I1206 10:40:47.686328  2840 net.cpp:100] Creating Layer conv1
I1206 10:40:47.686413  2840 net.cpp:434] conv1 <- data
I1206 10:40:47.686466  2840 net.cpp:408] conv1 -> conv1
I1206 10:40:47.697896  2840 net.cpp:150] Setting up conv1
I1206 10:40:47.697989  2840 net.cpp:157] Top shape: 100 20 24 24 (1152000)
I1206 10:40:47.698163  2840 net.cpp:165] Memory required for data: 4922800
I1206 10:40:47.698279  2840 layer_factory.hpp:77] Creating layer pool1
I1206 10:40:47.698346  2840 net.cpp:100] Creating Layer pool1
I1206 10:40:47.698402  2840 net.cpp:434] pool1 <- conv1
I1206 10:40:47.698473  2840 net.cpp:408] pool1 -> pool1
I1206 10:40:47.698788  2840 net.cpp:150] Setting up pool1
I1206 10:40:47.698844  2840 net.cpp:157] Top shape: 100 20 12 12 (288000)
I1206 10:40:47.698909  2840 net.cpp:165] Memory required for data: 6074800
I1206 10:40:47.698959  2840 layer_factory.hpp:77] Creating layer conv2
I1206 10:40:47.699044  2840 net.cpp:100] Creating Layer conv2
I1206 10:40:47.699103  2840 net.cpp:434] conv2 <- pool1
I1206 10:40:47.699195  2840 net.cpp:408] conv2 -> conv2
I1206 10:40:47.712981  2840 net.cpp:150] Setting up conv2
I1206 10:40:47.713048  2840 net.cpp:157] Top shape: 100 50 8 8 (320000)
I1206 10:40:47.713096  2840 net.cpp:165] Memory required for data: 7354800
I1206 10:40:47.713152  2840 layer_factory.hpp:77] Creating layer pool2
I1206 10:40:47.713207  2840 net.cpp:100] Creating Layer pool2
I1206 10:40:47.713243  2840 net.cpp:434] pool2 <- conv2
I1206 10:40:47.713759  2840 net.cpp:408] pool2 -> pool2
I1206 10:40:47.713997  2840 net.cpp:150] Setting up pool2
I1206 10:40:47.714035  2840 net.cpp:157] Top shape: 100 50 4 4 (80000)
I1206 10:40:47.714071  2840 net.cpp:165] Memory required for data: 7674800
I1206 10:40:47.714102  2840 layer_factory.hpp:77] Creating layer ip1
I1206 10:40:47.714150  2840 net.cpp:100] Creating Layer ip1
I1206 10:40:47.714182  2840 net.cpp:434] ip1 <- pool2
I1206 10:40:47.714220  2840 net.cpp:408] ip1 -> ip1
I1206 10:40:47.725843  2840 net.cpp:150] Setting up ip1
I1206 10:40:47.725914  2840 net.cpp:157] Top shape: 100 500 (50000)
I1206 10:40:47.725953  2840 net.cpp:165] Memory required for data: 7874800
I1206 10:40:47.726002  2840 layer_factory.hpp:77] Creating layer relu1
I1206 10:40:47.726049  2840 net.cpp:100] Creating Layer relu1
I1206 10:40:47.726083  2840 net.cpp:434] relu1 <- ip1
I1206 10:40:47.726116  2840 net.cpp:395] relu1 -> ip1 (in-place)
I1206 10:40:47.728677  2840 net.cpp:150] Setting up relu1
I1206 10:40:47.728781  2840 net.cpp:157] Top shape: 100 500 (50000)
I1206 10:40:47.728824  2840 net.cpp:165] Memory required for data: 8074800
I1206 10:40:47.728857  2840 layer_factory.hpp:77] Creating layer ip2
I1206 10:40:47.728914  2840 net.cpp:100] Creating Layer ip2
I1206 10:40:47.728946  2840 net.cpp:434] ip2 <- ip1
I1206 10:40:47.728986  2840 net.cpp:408] ip2 -> ip2
I1206 10:40:47.729912  2840 net.cpp:150] Setting up ip2
I1206 10:40:47.730042  2840 net.cpp:157] Top shape: 100 10 (1000)
I1206 10:40:47.730197  2840 net.cpp:165] Memory required for data: 8078800
I1206 10:40:47.730247  2840 layer_factory.hpp:77] Creating layer ip2_ip2_0_split
I1206 10:40:47.730376  2840 net.cpp:100] Creating Layer ip2_ip2_0_split
I1206 10:40:47.730412  2840 net.cpp:434] ip2_ip2_0_split <- ip2
I1206 10:40:47.730455  2840 net.cpp:408] ip2_ip2_0_split -> ip2_ip2_0_split_0
I1206 10:40:47.730504  2840 net.cpp:408] ip2_ip2_0_split -> ip2_ip2_0_split_1
I1206 10:40:47.730882  2840 net.cpp:150] Setting up ip2_ip2_0_split
I1206 10:40:47.730934  2840 net.cpp:157] Top shape: 100 10 (1000)
I1206 10:40:47.730973  2840 net.cpp:157] Top shape: 100 10 (1000)
I1206 10:40:47.731006  2840 net.cpp:165] Memory required for data: 8086800
I1206 10:40:47.731040  2840 layer_factory.hpp:77] Creating layer accuracy
I1206 10:40:47.731099  2840 net.cpp:100] Creating Layer accuracy
I1206 10:40:47.731135  2840 net.cpp:434] accuracy <- ip2_ip2_0_split_0
I1206 10:40:47.731173  2840 net.cpp:434] accuracy <- label_mnist_1_split_0
I1206 10:40:47.731210  2840 net.cpp:408] accuracy -> accuracy
…
