…
I1205 22:06:42.546963  2690 net.cpp:322] The NetState phase (0) differed from the phase (1) specified by a rule in layer mnist
I1205 22:06:42.547049  2690 net.cpp:322] The NetState phase (0) differed from the phase (1) specified by a rule in layer accuracy
I1205 22:06:42.547133  2690 net.cpp:58] Initializing net from parameters: 
name: "LeNet"
state {
  phase: TRAIN
  level: 0
  stage: ""
}
layer {
  name: "mnist"
  type: "Data"
  top: "data"
  top: "label"
  include {
    phase: TRAIN
  }
  transform_param {
    scale: 0.00390625
  }
  data_param {
    source: "examples/mnist/mnist_train_lmdb"
    batch_size: 64
    backend: LMDB
  }
}
layer {
  name: "conv1"
  type: "Convolution"
  bottom: "data"
  top: "conv1"
  param {
    lr_mult: 1
  }
  param {
    lr_mult: 2
  }
  convolution_param {
    num_output: 20
    kernel_size: 5
    stride: 1
    weight_filler {
      type: "xavier"
    }
    bias_filler {
      type: "constant"
    }
  }
}
layer {
  name: "pool1"
  type: "Pooling"
  bottom: "conv1"
  top: "pool1"
  pooling_param {
    pool: MAX
    kernel_size: 2
    stride: 2
  }
}
layer {
  name: "conv2"
  type: "Convolution"
  bottom: "pool1"
  top: "conv2"
  param {
    lr_mult: 1
  }
  param {
    lr_mult: 2
  }
  convolution_param {
    num_output: 50
    kernel_size: 5
    stride: 1
    weight_filler {
      type: "xavier"
    }
    bias_filler {
      type: "constant"
    }
  }
}
layer {
  name: "pool2"
  type: "Pooling"
  bottom: "conv2"
  top: "pool2"
  pooling_param {
    pool: MAX
    kernel_size: 2
    stride: 2
  }
}
layer {
  name: "ip1"
  type: "InnerProduct"
  bottom: "pool2"
  top: "ip1"
  param {
    lr_mult: 1
  }
  param {
    lr_mult: 2
  }
  inner_product_param {
    num_output: 500
    weight_filler {
      type: "xavier"
    }
    bias_filler {
      type: "constant"
    }
  }
}
layer {
  name: "layer"
  type: "TanH"
  bottom: "ip1"
  top: "ip1"
}
layer {
  name: "ip2"
  type: "InnerProduct"
  bottom: "ip1"
  top: "ip2"
  param {
    lr_mult: 1
  }
  param {
    lr_mult: 2
  }
  inner_product_param {
    num_output: 10
    weight_filler {
      type: "xavier"
    }
    bias_filler {
      type: "constant"
    }
  }
}
layer {
  name: "loss"
  type: "SoftmaxWithLoss"
  bottom: "ip2"
  bottom: "label"
  top: "loss"
}
I1205 22:06:42.549621  2690 layer_factory.hpp:77] Creating layer mnist
I1205 22:06:42.550648  2690 net.cpp:100] Creating Layer mnist
I1205 22:06:42.550966  2690 net.cpp:408] mnist -> data
I1205 22:06:42.551071  2690 net.cpp:408] mnist -> label
I1205 22:06:42.552028  2697 db_lmdb.cpp:35] Opened lmdb examples/mnist/mnist_train_lmdb
I1205 22:06:42.623836  2690 data_layer.cpp:41] output data size: 64,1,28,28
I1205 22:06:42.626391  2690 net.cpp:150] Setting up mnist
I1205 22:06:42.626459  2690 net.cpp:157] Top shape: 64 1 28 28 (50176)
I1205 22:06:42.626660  2690 net.cpp:157] Top shape: 64 (64)
I1205 22:06:42.626703  2690 net.cpp:165] Memory required for data: 200960
I1205 22:06:42.626750  2690 layer_factory.hpp:77] Creating layer conv1
I1205 22:06:42.626832  2690 net.cpp:100] Creating Layer conv1
I1205 22:06:42.626876  2690 net.cpp:434] conv1 <- data
I1205 22:06:42.626929  2690 net.cpp:408] conv1 -> conv1
I1205 22:06:43.434780  2690 net.cpp:150] Setting up conv1
I1205 22:06:43.434862  2690 net.cpp:157] Top shape: 64 20 24 24 (737280)
I1205 22:06:43.434912  2690 net.cpp:165] Memory required for data: 3150080
I1205 22:06:43.434986  2690 layer_factory.hpp:77] Creating layer pool1
I1205 22:06:43.435042  2690 net.cpp:100] Creating Layer pool1
I1205 22:06:43.435147  2690 net.cpp:434] pool1 <- conv1
I1205 22:06:43.435190  2690 net.cpp:408] pool1 -> pool1
I1205 22:06:43.435369  2690 net.cpp:150] Setting up pool1
I1205 22:06:43.435405  2690 net.cpp:157] Top shape: 64 20 12 12 (184320)
I1205 22:06:43.435442  2690 net.cpp:165] Memory required for data: 3887360
I1205 22:06:43.435472  2690 layer_factory.hpp:77] Creating layer conv2
I1205 22:06:43.435518  2690 net.cpp:100] Creating Layer conv2
I1205 22:06:43.435556  2690 net.cpp:434] conv2 <- pool1
I1205 22:06:43.435595  2690 net.cpp:408] conv2 -> conv2
I1205 22:06:43.440059  2690 net.cpp:150] Setting up conv2
I1205 22:06:43.440122  2690 net.cpp:157] Top shape: 64 50 8 8 (204800)
I1205 22:06:43.440165  2690 net.cpp:165] Memory required for data: 4706560
I1205 22:06:43.440215  2690 layer_factory.hpp:77] Creating layer pool2
I1205 22:06:43.440270  2690 net.cpp:100] Creating Layer pool2
I1205 22:06:43.440304  2690 net.cpp:434] pool2 <- conv2
I1205 22:06:43.440345  2690 net.cpp:408] pool2 -> pool2
I1205 22:06:43.440510  2690 net.cpp:150] Setting up pool2
I1205 22:06:43.440547  2690 net.cpp:157] Top shape: 64 50 4 4 (51200)
I1205 22:06:43.440587  2690 net.cpp:165] Memory required for data: 4911360
I1205 22:06:43.440615  2690 layer_factory.hpp:77] Creating layer ip1
I1205 22:06:43.440663  2690 net.cpp:100] Creating Layer ip1
I1205 22:06:43.440698  2690 net.cpp:434] ip1 <- pool2
I1205 22:06:43.440740  2690 net.cpp:408] ip1 -> ip1
I1205 22:06:43.445919  2690 net.cpp:150] Setting up ip1
I1205 22:06:43.445966  2690 net.cpp:157] Top shape: 64 500 (32000)
I1205 22:06:43.446000  2690 net.cpp:165] Memory required for data: 5039360
I1205 22:06:43.446044  2690 layer_factory.hpp:77] Creating layer layer
I1205 22:06:43.446085  2690 net.cpp:100] Creating Layer layer
I1205 22:06:43.446115  2690 net.cpp:434] layer <- ip1
I1205 22:06:43.446151  2690 net.cpp:395] layer -> ip1 (in-place)
I1205 22:06:43.448283  2690 net.cpp:150] Setting up layer
I1205 22:06:43.448355  2690 net.cpp:157] Top shape: 64 500 (32000)
I1205 22:06:43.448398  2690 net.cpp:165] Memory required for data: 5167360
I1205 22:06:43.448447  2690 layer_factory.hpp:77] Creating layer ip2
I1205 22:06:43.448505  2690 net.cpp:100] Creating Layer ip2
I1205 22:06:43.448544  2690 net.cpp:434] ip2 <- ip1
I1205 22:06:43.448588  2690 net.cpp:408] ip2 -> ip2
I1205 22:06:43.449226  2690 net.cpp:150] Setting up ip2
I1205 22:06:43.449282  2690 net.cpp:157] Top shape: 64 10 (640)
I1205 22:06:43.449321  2690 net.cpp:165] Memory required for data: 5169920
I1205 22:06:43.449363  2690 layer_factory.hpp:77] Creating layer loss
I1205 22:06:43.449414  2690 net.cpp:100] Creating Layer loss
I1205 22:06:43.449450  2690 net.cpp:434] loss <- ip2
I1205 22:06:43.449486  2690 net.cpp:434] loss <- label
I1205 22:06:43.449525  2690 net.cpp:408] loss -> loss
I1205 22:06:43.449596  2690 layer_factory.hpp:77] Creating layer loss
…
I1205 22:06:43.452574  2690 solver.cpp:193] Creating test net (#0) specified by net file: examples/mnist/lenet_train_test.prototxt
I1205 22:06:43.452734  2690 net.cpp:322] The NetState phase (1) differed from the phase (0) specified by a rule in layer mnist
I1205 22:06:43.452792  2690 net.cpp:58] Initializing net from parameters: 
name: "LeNet"
state {
  phase: TEST
}
layer {
  name: "mnist"
  type: "Data"
  top: "data"
  top: "label"
  include {
    phase: TEST
  }
  transform_param {
    scale: 0.00390625
  }
  data_param {
    source: "examples/mnist/mnist_test_lmdb"
    batch_size: 100
    backend: LMDB
  }
}
layer {
  name: "conv1"
  type: "Convolution"
  bottom: "data"
  top: "conv1"
  param {
    lr_mult: 1
  }
  param {
    lr_mult: 2
  }
  convolution_param {
    num_output: 20
    kernel_size: 5
    stride: 1
    weight_filler {
      type: "xavier"
    }
    bias_filler {
      type: "constant"
    }
  }
}
layer {
  name: "pool1"
  type: "Pooling"
  bottom: "conv1"
  top: "pool1"
  pooling_param {
    pool: MAX
    kernel_size: 2
    stride: 2
  }
}
layer {
  name: "conv2"
  type: "Convolution"
  bottom: "pool1"
  top: "conv2"
  param {
    lr_mult: 1
  }
  param {
    lr_mult: 2
  }
  convolution_param {
    num_output: 50
    kernel_size: 5
    stride: 1
    weight_filler {
      type: "xavier"
    }
    bias_filler {
      type: "constant"
    }
  }
}
layer {
  name: "pool2"
  type: "Pooling"
  bottom: "conv2"
  top: "pool2"
  pooling_param {
    pool: MAX
    kernel_size: 2
    stride: 2
  }
}
layer {
  name: "ip1"
  type: "InnerProduct"
  bottom: "pool2"
  top: "ip1"
  param {
    lr_mult: 1
  }
  param {
    lr_mult: 2
  }
  inner_product_param {
    num_output: 500
    weight_filler {
      type: "xavier"
    }
    bias_filler {
      type: "constant"
    }
  }
}
layer {
  name: "layer"
  type: "TanH"
  bottom: "ip1"
  top: "ip1"
}
layer {
  name: "ip2"
  type: "InnerProduct"
  bottom: "ip1"
  top: "ip2"
  param {
    lr_mult: 1
  }
  param {
    lr_mult: 2
  }
  inner_product_param {
    num_output: 10
    weight_filler {
      type: "xavier"
    }
    bias_filler {
      type: "constant"
    }
  }
}
layer {
  name: "accuracy"
  type: "Accuracy"
  bottom: "ip2"
  bottom: "label"
  top: "accuracy"
  include {
    phase: TEST
  }
}
layer {
  name: "loss"
  type: "SoftmaxWithLoss"
  bottom: "ip2"
  bottom: "label"
  top: "loss"
}
I1205 22:06:43.455255  2690 layer_factory.hpp:77] Creating layer mnist
I1205 22:06:43.455543  2690 net.cpp:100] Creating Layer mnist
I1205 22:06:43.455601  2690 net.cpp:408] mnist -> data
I1205 22:06:43.455654  2690 net.cpp:408] mnist -> label
I1205 22:06:43.456768  2699 db_lmdb.cpp:35] Opened lmdb examples/mnist/mnist_test_lmdb
I1205 22:06:43.457206  2690 data_layer.cpp:41] output data size: 100,1,28,28
I1205 22:06:43.462731  2690 net.cpp:150] Setting up mnist
I1205 22:06:43.462797  2690 net.cpp:157] Top shape: 100 1 28 28 (78400)
I1205 22:06:43.462841  2690 net.cpp:157] Top shape: 100 (100)
I1205 22:06:43.462874  2690 net.cpp:165] Memory required for data: 314000
I1205 22:06:43.462914  2690 layer_factory.hpp:77] Creating layer label_mnist_1_split
I1205 22:06:43.462965  2690 net.cpp:100] Creating Layer label_mnist_1_split
I1205 22:06:43.463002  2690 net.cpp:434] label_mnist_1_split <- label
I1205 22:06:43.463045  2690 net.cpp:408] label_mnist_1_split -> label_mnist_1_split_0
I1205 22:06:43.463095  2690 net.cpp:408] label_mnist_1_split -> label_mnist_1_split_1
I1205 22:06:43.463269  2690 net.cpp:150] Setting up label_mnist_1_split
I1205 22:06:43.463309  2690 net.cpp:157] Top shape: 100 (100)
I1205 22:06:43.463342  2690 net.cpp:157] Top shape: 100 (100)
I1205 22:06:43.463374  2690 net.cpp:165] Memory required for data: 314800
I1205 22:06:43.463404  2690 layer_factory.hpp:77] Creating layer conv1
I1205 22:06:43.463455  2690 net.cpp:100] Creating Layer conv1
I1205 22:06:43.463770  2690 net.cpp:434] conv1 <- data
I1205 22:06:43.463852  2690 net.cpp:408] conv1 -> conv1
I1205 22:06:43.478272  2690 net.cpp:150] Setting up conv1
I1205 22:06:43.478348  2690 net.cpp:157] Top shape: 100 20 24 24 (1152000)
I1205 22:06:43.478392  2690 net.cpp:165] Memory required for data: 4922800
I1205 22:06:43.478458  2690 layer_factory.hpp:77] Creating layer pool1
I1205 22:06:43.478571  2690 net.cpp:100] Creating Layer pool1
I1205 22:06:43.478607  2690 net.cpp:434] pool1 <- conv1
I1205 22:06:43.478653  2690 net.cpp:408] pool1 -> pool1
I1205 22:06:43.478878  2690 net.cpp:150] Setting up pool1
I1205 22:06:43.478920  2690 net.cpp:157] Top shape: 100 20 12 12 (288000)
I1205 22:06:43.478973  2690 net.cpp:165] Memory required for data: 6074800
I1205 22:06:43.479008  2690 layer_factory.hpp:77] Creating layer conv2
I1205 22:06:43.479068  2690 net.cpp:100] Creating Layer conv2
I1205 22:06:43.479105  2690 net.cpp:434] conv2 <- pool1
I1205 22:06:43.479148  2690 net.cpp:408] conv2 -> conv2
I1205 22:06:43.486956  2690 net.cpp:150] Setting up conv2
I1205 22:06:43.487021  2690 net.cpp:157] Top shape: 100 50 8 8 (320000)
I1205 22:06:43.487071  2690 net.cpp:165] Memory required for data: 7354800
I1205 22:06:43.487149  2690 layer_factory.hpp:77] Creating layer pool2
I1205 22:06:43.487203  2690 net.cpp:100] Creating Layer pool2
I1205 22:06:43.487241  2690 net.cpp:434] pool2 <- conv2
I1205 22:06:43.487282  2690 net.cpp:408] pool2 -> pool2
I1205 22:06:43.487483  2690 net.cpp:150] Setting up pool2
I1205 22:06:43.487519  2690 net.cpp:157] Top shape: 100 50 4 4 (80000)
I1205 22:06:43.487556  2690 net.cpp:165] Memory required for data: 7674800
I1205 22:06:43.487592  2690 layer_factory.hpp:77] Creating layer ip1
I1205 22:06:43.487648  2690 net.cpp:100] Creating Layer ip1
I1205 22:06:43.487679  2690 net.cpp:434] ip1 <- pool2
I1205 22:06:43.487715  2690 net.cpp:408] ip1 -> ip1
I1205 22:06:43.493078  2690 net.cpp:150] Setting up ip1
I1205 22:06:43.493131  2690 net.cpp:157] Top shape: 100 500 (50000)
I1205 22:06:43.493175  2690 net.cpp:165] Memory required for data: 7874800
I1205 22:06:43.493228  2690 layer_factory.hpp:77] Creating layer layer
I1205 22:06:43.493278  2690 net.cpp:100] Creating Layer layer
I1205 22:06:43.493317  2690 net.cpp:434] layer <- ip1
I1205 22:06:43.493355  2690 net.cpp:395] layer -> ip1 (in-place)
I1205 22:06:43.494817  2690 net.cpp:150] Setting up layer
I1205 22:06:43.494868  2690 net.cpp:157] Top shape: 100 500 (50000)
I1205 22:06:43.494907  2690 net.cpp:165] Memory required for data: 8074800
I1205 22:06:43.494937  2690 layer_factory.hpp:77] Creating layer ip2
I1205 22:06:43.494990  2690 net.cpp:100] Creating Layer ip2
I1205 22:06:43.495024  2690 net.cpp:434] ip2 <- ip1
I1205 22:06:43.495062  2690 net.cpp:408] ip2 -> ip2
I1205 22:06:43.495534  2690 net.cpp:150] Setting up ip2
I1205 22:06:43.495574  2690 net.cpp:157] Top shape: 100 10 (1000)
I1205 22:06:43.495609  2690 net.cpp:165] Memory required for data: 8078800
I1205 22:06:43.495648  2690 layer_factory.hpp:77] Creating layer ip2_ip2_0_split
I1205 22:06:43.495692  2690 net.cpp:100] Creating Layer ip2_ip2_0_split
I1205 22:06:43.495726  2690 net.cpp:434] ip2_ip2_0_split <- ip2
I1205 22:06:43.495764  2690 net.cpp:408] ip2_ip2_0_split -> ip2_ip2_0_split_0
I1205 22:06:43.495801  2690 net.cpp:408] ip2_ip2_0_split -> ip2_ip2_0_split_1
I1205 22:06:43.495944  2690 net.cpp:150] Setting up ip2_ip2_0_split
I1205 22:06:43.495977  2690 net.cpp:157] Top shape: 100 10 (1000)
I1205 22:06:43.496011  2690 net.cpp:157] Top shape: 100 10 (1000)
I1205 22:06:43.496045  2690 net.cpp:165] Memory required for data: 8086800
I1205 22:06:43.496078  2690 layer_factory.hpp:77] Creating layer accuracy
I1205 22:06:43.496129  2690 net.cpp:100] Creating Layer accuracy
I1205 22:06:43.496161  2690 net.cpp:434] accuracy <- ip2_ip2_0_split_0
I1205 22:06:43.496196  2690 net.cpp:434] accuracy <- label_mnist_1_split_0
I1205 22:06:43.496232  2690 net.cpp:408] accuracy -> accuracy
…
