…
I1205 21:55:55.963737  2482 net.cpp:322] The NetState phase (0) differed from the phase (1) specified by a rule in layer mnist
I1205 21:55:55.963824  2482 net.cpp:322] The NetState phase (0) differed from the phase (1) specified by a rule in layer accuracy
I1205 21:55:55.963884  2482 net.cpp:58] Initializing net from parameters: 
name: "LeNet"
state {
  phase: TRAIN
  level: 0
  stage: ""
}
layer {
  name: "mnist"
  type: "Data"
  top: "data"
  top: "label"
  include {
    phase: TRAIN
  }
  transform_param {
    scale: 0.00390625
  }
  data_param {
    source: "examples/mnist/mnist_train_lmdb"
    batch_size: 64
    backend: LMDB
  }
}
layer {
  name: "conv1"
  type: "Convolution"
  bottom: "data"
  top: "conv1"
  param {
    lr_mult: 1
  }
  param {
    lr_mult: 2
  }
  convolution_param {
    num_output: 20
    kernel_size: 5
    stride: 1
    weight_filler {
      type: "xavier"
    }
    bias_filler {
      type: "constant"
    }
  }
}
layer {
  name: "pool1"
  type: "Pooling"
  bottom: "conv1"
  top: "pool1"
  pooling_param {
    pool: MAX
    kernel_size: 2
    stride: 2
  }
}
layer {
  name: "conv2"
  type: "Convolution"
  bottom: "pool1"
  top: "conv2"
  param {
    lr_mult: 1
  }
  param {
    lr_mult: 2
  }
  convolution_param {
    num_output: 50
    kernel_size: 5
    stride: 1
    weight_filler {
      type: "xavier"
    }
    bias_filler {
      type: "constant"
    }
  }
}
layer {
  name: "pool2"
  type: "Pooling"
  bottom: "conv2"
  top: "pool2"
  pooling_param {
    pool: MAX
    kernel_size: 2
    stride: 2
  }
}
layer {
  name: "ip1"
  type: "InnerProduct"
  bottom: "pool2"
  top: "ip1"
  param {
    lr_mult: 1
  }
  param {
    lr_mult: 2
  }
  inner_product_param {
    num_output: 500
    weight_filler {
      type: "xavier"
    }
    bias_filler {
      type: "constant"
    }
  }
}
layer {
  name: "encode1neuron"
  type: "Sigmoid"
  bottom: "ip1"
  top: "ip1"
}
layer {
  name: "ip2"
  type: "InnerProduct"
  bottom: "ip1"
  top: "ip2"
  param {
    lr_mult: 1
  }
  param {
    lr_mult: 2
  }
  inner_product_param {
    num_output: 10
    weight_filler {
      type: "xavier"
    }
    bias_filler {
      type: "constant"
    }
  }
}
layer {
  name: "loss"
  type: "SoftmaxWithLoss"
  bottom: "ip2"
  bottom: "label"
  top: "loss"
}
I1205 21:55:55.966390  2482 layer_factory.hpp:77] Creating layer mnist
I1205 21:55:55.967440  2482 net.cpp:100] Creating Layer mnist
I1205 21:55:55.967629  2482 net.cpp:408] mnist -> data
I1205 21:55:55.967744  2482 net.cpp:408] mnist -> label
I1205 21:55:55.968648  2490 db_lmdb.cpp:35] Opened lmdb examples/mnist/mnist_train_lmdb
I1205 21:55:56.039269  2482 data_layer.cpp:41] output data size: 64,1,28,28
I1205 21:55:56.041818  2482 net.cpp:150] Setting up mnist
I1205 21:55:56.041887  2482 net.cpp:157] Top shape: 64 1 28 28 (50176)
I1205 21:55:56.042078  2482 net.cpp:157] Top shape: 64 (64)
I1205 21:55:56.042119  2482 net.cpp:165] Memory required for data: 200960
I1205 21:55:56.042168  2482 layer_factory.hpp:77] Creating layer conv1
I1205 21:55:56.042251  2482 net.cpp:100] Creating Layer conv1
I1205 21:55:56.042295  2482 net.cpp:434] conv1 <- data
I1205 21:55:56.042347  2482 net.cpp:408] conv1 -> conv1
I1205 21:55:56.838876  2482 net.cpp:150] Setting up conv1
I1205 21:55:56.838956  2482 net.cpp:157] Top shape: 64 20 24 24 (737280)
I1205 21:55:56.839004  2482 net.cpp:165] Memory required for data: 3150080
I1205 21:55:56.839079  2482 layer_factory.hpp:77] Creating layer pool1
I1205 21:55:56.839140  2482 net.cpp:100] Creating Layer pool1
I1205 21:55:56.839254  2482 net.cpp:434] pool1 <- conv1
I1205 21:55:56.839303  2482 net.cpp:408] pool1 -> pool1
I1205 21:55:56.839498  2482 net.cpp:150] Setting up pool1
I1205 21:55:56.839539  2482 net.cpp:157] Top shape: 64 20 12 12 (184320)
I1205 21:55:56.839576  2482 net.cpp:165] Memory required for data: 3887360
I1205 21:55:56.839609  2482 layer_factory.hpp:77] Creating layer conv2
I1205 21:55:56.839661  2482 net.cpp:100] Creating Layer conv2
I1205 21:55:56.839695  2482 net.cpp:434] conv2 <- pool1
I1205 21:55:56.839735  2482 net.cpp:408] conv2 -> conv2
I1205 21:55:56.845310  2482 net.cpp:150] Setting up conv2
I1205 21:55:56.845374  2482 net.cpp:157] Top shape: 64 50 8 8 (204800)
I1205 21:55:56.845420  2482 net.cpp:165] Memory required for data: 4706560
I1205 21:55:56.845474  2482 layer_factory.hpp:77] Creating layer pool2
I1205 21:55:56.845520  2482 net.cpp:100] Creating Layer pool2
I1205 21:55:56.845557  2482 net.cpp:434] pool2 <- conv2
I1205 21:55:56.845600  2482 net.cpp:408] pool2 -> pool2
I1205 21:55:56.845746  2482 net.cpp:150] Setting up pool2
I1205 21:55:56.845782  2482 net.cpp:157] Top shape: 64 50 4 4 (51200)
I1205 21:55:56.845818  2482 net.cpp:165] Memory required for data: 4911360
I1205 21:55:56.845851  2482 layer_factory.hpp:77] Creating layer ip1
I1205 21:55:56.845895  2482 net.cpp:100] Creating Layer ip1
I1205 21:55:56.845927  2482 net.cpp:434] ip1 <- pool2
I1205 21:55:56.845966  2482 net.cpp:408] ip1 -> ip1
I1205 21:55:56.851677  2482 net.cpp:150] Setting up ip1
I1205 21:55:56.851734  2482 net.cpp:157] Top shape: 64 500 (32000)
I1205 21:55:56.851770  2482 net.cpp:165] Memory required for data: 5039360
I1205 21:55:56.851820  2482 layer_factory.hpp:77] Creating layer encode1neuron
I1205 21:55:56.851879  2482 net.cpp:100] Creating Layer encode1neuron
I1205 21:55:56.851917  2482 net.cpp:434] encode1neuron <- ip1
I1205 21:55:56.851956  2482 net.cpp:395] encode1neuron -> ip1 (in-place)
I1205 21:55:56.854135  2482 net.cpp:150] Setting up encode1neuron
I1205 21:55:56.854202  2482 net.cpp:157] Top shape: 64 500 (32000)
I1205 21:55:56.854244  2482 net.cpp:165] Memory required for data: 5167360
I1205 21:55:56.854280  2482 layer_factory.hpp:77] Creating layer ip2
I1205 21:55:56.854326  2482 net.cpp:100] Creating Layer ip2
I1205 21:55:56.854362  2482 net.cpp:434] ip2 <- ip1
I1205 21:55:56.854404  2482 net.cpp:408] ip2 -> ip2
I1205 21:55:56.855316  2482 net.cpp:150] Setting up ip2
I1205 21:55:56.855376  2482 net.cpp:157] Top shape: 64 10 (640)
I1205 21:55:56.855415  2482 net.cpp:165] Memory required for data: 5169920
I1205 21:55:56.855465  2482 layer_factory.hpp:77] Creating layer loss
I1205 21:55:56.855525  2482 net.cpp:100] Creating Layer loss
I1205 21:55:56.855563  2482 net.cpp:434] loss <- ip2
I1205 21:55:56.855600  2482 net.cpp:434] loss <- label
I1205 21:55:56.855644  2482 net.cpp:408] loss -> loss
I1205 21:55:56.855720  2482 layer_factory.hpp:77] Creating layer loss
…
I1205 21:55:56.858943  2482 solver.cpp:193] Creating test net (#0) specified by net file: examples/mnist/lenet_train_test.prototxt
I1205 21:55:56.859103  2482 net.cpp:322] The NetState phase (1) differed from the phase (0) specified by a rule in layer mnist
I1205 21:55:56.859163  2482 net.cpp:58] Initializing net from parameters: 
name: "LeNet"
state {
  phase: TEST
}
layer {
  name: "mnist"
  type: "Data"
  top: "data"
  top: "label"
  include {
    phase: TEST
  }
  transform_param {
    scale: 0.00390625
  }
  data_param {
    source: "examples/mnist/mnist_test_lmdb"
    batch_size: 100
    backend: LMDB
  }
}
layer {
  name: "conv1"
  type: "Convolution"
  bottom: "data"
  top: "conv1"
  param {
    lr_mult: 1
  }
  param {
    lr_mult: 2
  }
  convolution_param {
    num_output: 20
    kernel_size: 5
    stride: 1
    weight_filler {
      type: "xavier"
    }
    bias_filler {
      type: "constant"
    }
  }
}
layer {
  name: "pool1"
  type: "Pooling"
  bottom: "conv1"
  top: "pool1"
  pooling_param {
    pool: MAX
    kernel_size: 2
    stride: 2
  }
}
layer {
  name: "conv2"
  type: "Convolution"
  bottom: "pool1"
  top: "conv2"
  param {
    lr_mult: 1
  }
  param {
    lr_mult: 2
  }
  convolution_param {
    num_output: 50
    kernel_size: 5
    stride: 1
    weight_filler {
      type: "xavier"
    }
    bias_filler {
      type: "constant"
    }
  }
}
layer {
  name: "pool2"
  type: "Pooling"
  bottom: "conv2"
  top: "pool2"
  pooling_param {
    pool: MAX
    kernel_size: 2
    stride: 2
  }
}
layer {
  name: "ip1"
  type: "InnerProduct"
  bottom: "pool2"
  top: "ip1"
  param {
    lr_mult: 1
  }
  param {
    lr_mult: 2
  }
  inner_product_param {
    num_output: 500
    weight_filler {
      type: "xavier"
    }
    bias_filler {
      type: "constant"
    }
  }
}
layer {
  name: "encode1neuron"
  type: "Sigmoid"
  bottom: "ip1"
  top: "ip1"
}
layer {
  name: "ip2"
  type: "InnerProduct"
  bottom: "ip1"
  top: "ip2"
  param {
    lr_mult: 1
  }
  param {
    lr_mult: 2
  }
  inner_product_param {
    num_output: 10
    weight_filler {
      type: "xavier"
    }
    bias_filler {
      type: "constant"
    }
  }
}
layer {
  name: "accuracy"
  type: "Accuracy"
  bottom: "ip2"
  bottom: "label"
  top: "accuracy"
  include {
    phase: TEST
  }
}
layer {
  name: "loss"
  type: "SoftmaxWithLoss"
  bottom: "ip2"
  bottom: "label"
  top: "loss"
}
I1205 21:55:56.861873  2482 layer_factory.hpp:77] Creating layer mnist
I1205 21:55:56.862143  2482 net.cpp:100] Creating Layer mnist
I1205 21:55:56.862198  2482 net.cpp:408] mnist -> data
I1205 21:55:56.862251  2482 net.cpp:408] mnist -> label
I1205 21:55:56.863337  2492 db_lmdb.cpp:35] Opened lmdb examples/mnist/mnist_test_lmdb
I1205 21:55:56.863687  2482 data_layer.cpp:41] output data size: 100,1,28,28
I1205 21:55:56.868926  2482 net.cpp:150] Setting up mnist
I1205 21:55:56.868993  2482 net.cpp:157] Top shape: 100 1 28 28 (78400)
I1205 21:55:56.869041  2482 net.cpp:157] Top shape: 100 (100)
I1205 21:55:56.869079  2482 net.cpp:165] Memory required for data: 314000
I1205 21:55:56.869119  2482 layer_factory.hpp:77] Creating layer label_mnist_1_split
I1205 21:55:56.869170  2482 net.cpp:100] Creating Layer label_mnist_1_split
I1205 21:55:56.869209  2482 net.cpp:434] label_mnist_1_split <- label
I1205 21:55:56.869253  2482 net.cpp:408] label_mnist_1_split -> label_mnist_1_split_0
I1205 21:55:56.869309  2482 net.cpp:408] label_mnist_1_split -> label_mnist_1_split_1
I1205 21:55:56.869508  2482 net.cpp:150] Setting up label_mnist_1_split
I1205 21:55:56.869546  2482 net.cpp:157] Top shape: 100 (100)
I1205 21:55:56.869578  2482 net.cpp:157] Top shape: 100 (100)
I1205 21:55:56.869607  2482 net.cpp:165] Memory required for data: 314800
I1205 21:55:56.869637  2482 layer_factory.hpp:77] Creating layer conv1
I1205 21:55:56.869685  2482 net.cpp:100] Creating Layer conv1
I1205 21:55:56.869714  2482 net.cpp:434] conv1 <- data
I1205 21:55:56.869748  2482 net.cpp:408] conv1 -> conv1
I1205 21:55:56.881172  2482 net.cpp:150] Setting up conv1
I1205 21:55:56.881252  2482 net.cpp:157] Top shape: 100 20 24 24 (1152000)
I1205 21:55:56.881301  2482 net.cpp:165] Memory required for data: 4922800
I1205 21:55:56.881427  2482 layer_factory.hpp:77] Creating layer pool1
I1205 21:55:56.881479  2482 net.cpp:100] Creating Layer pool1
I1205 21:55:56.881512  2482 net.cpp:434] pool1 <- conv1
I1205 21:55:56.881559  2482 net.cpp:408] pool1 -> pool1
I1205 21:55:56.881749  2482 net.cpp:150] Setting up pool1
I1205 21:55:56.881789  2482 net.cpp:157] Top shape: 100 20 12 12 (288000)
I1205 21:55:56.881834  2482 net.cpp:165] Memory required for data: 6074800
I1205 21:55:56.881870  2482 layer_factory.hpp:77] Creating layer conv2
I1205 21:55:56.881932  2482 net.cpp:100] Creating Layer conv2
I1205 21:55:56.881966  2482 net.cpp:434] conv2 <- pool1
I1205 21:55:56.882007  2482 net.cpp:408] conv2 -> conv2
I1205 21:55:56.890275  2482 net.cpp:150] Setting up conv2
I1205 21:55:56.890334  2482 net.cpp:157] Top shape: 100 50 8 8 (320000)
I1205 21:55:56.890377  2482 net.cpp:165] Memory required for data: 7354800
I1205 21:55:56.890429  2482 layer_factory.hpp:77] Creating layer pool2
I1205 21:55:56.890487  2482 net.cpp:100] Creating Layer pool2
I1205 21:55:56.890528  2482 net.cpp:434] pool2 <- conv2
I1205 21:55:56.890574  2482 net.cpp:408] pool2 -> pool2
I1205 21:55:56.890763  2482 net.cpp:150] Setting up pool2
I1205 21:55:56.890802  2482 net.cpp:157] Top shape: 100 50 4 4 (80000)
I1205 21:55:56.890841  2482 net.cpp:165] Memory required for data: 7674800
I1205 21:55:56.890877  2482 layer_factory.hpp:77] Creating layer ip1
I1205 21:55:56.890924  2482 net.cpp:100] Creating Layer ip1
I1205 21:55:56.890982  2482 net.cpp:434] ip1 <- pool2
I1205 21:55:56.891028  2482 net.cpp:408] ip1 -> ip1
I1205 21:55:56.897213  2482 net.cpp:150] Setting up ip1
I1205 21:55:56.897275  2482 net.cpp:157] Top shape: 100 500 (50000)
I1205 21:55:56.897320  2482 net.cpp:165] Memory required for data: 7874800
I1205 21:55:56.897370  2482 layer_factory.hpp:77] Creating layer encode1neuron
I1205 21:55:56.897421  2482 net.cpp:100] Creating Layer encode1neuron
I1205 21:55:56.897477  2482 net.cpp:434] encode1neuron <- ip1
I1205 21:55:56.897519  2482 net.cpp:395] encode1neuron -> ip1 (in-place)
I1205 21:55:56.899550  2482 net.cpp:150] Setting up encode1neuron
I1205 21:55:56.899601  2482 net.cpp:157] Top shape: 100 500 (50000)
I1205 21:55:56.899634  2482 net.cpp:165] Memory required for data: 8074800
I1205 21:55:56.899668  2482 layer_factory.hpp:77] Creating layer ip2
I1205 21:55:56.899720  2482 net.cpp:100] Creating Layer ip2
I1205 21:55:56.899756  2482 net.cpp:434] ip2 <- ip1
I1205 21:55:56.899796  2482 net.cpp:408] ip2 -> ip2
I1205 21:55:56.900295  2482 net.cpp:150] Setting up ip2
I1205 21:55:56.900338  2482 net.cpp:157] Top shape: 100 10 (1000)
I1205 21:55:56.900378  2482 net.cpp:165] Memory required for data: 8078800
I1205 21:55:56.900419  2482 layer_factory.hpp:77] Creating layer ip2_ip2_0_split
I1205 21:55:56.900460  2482 net.cpp:100] Creating Layer ip2_ip2_0_split
I1205 21:55:56.900492  2482 net.cpp:434] ip2_ip2_0_split <- ip2
I1205 21:55:56.900535  2482 net.cpp:408] ip2_ip2_0_split -> ip2_ip2_0_split_0
I1205 21:55:56.900579  2482 net.cpp:408] ip2_ip2_0_split -> ip2_ip2_0_split_1
I1205 21:55:56.900727  2482 net.cpp:150] Setting up ip2_ip2_0_split
I1205 21:55:56.900761  2482 net.cpp:157] Top shape: 100 10 (1000)
I1205 21:55:56.900795  2482 net.cpp:157] Top shape: 100 10 (1000)
I1205 21:55:56.900831  2482 net.cpp:165] Memory required for data: 8086800
I1205 21:55:56.900864  2482 layer_factory.hpp:77] Creating layer accuracy
I1205 21:55:56.900910  2482 net.cpp:100] Creating Layer accuracy
I1205 21:55:56.900943  2482 net.cpp:434] accuracy <- ip2_ip2_0_split_0
I1205 21:55:56.900977  2482 net.cpp:434] accuracy <- label_mnist_1_split_0
I1205 21:55:56.901016  2482 net.cpp:408] accuracy -> accuracy
…
