…
I1206 11:52:16.080314  4195 net.cpp:322] The NetState phase (0) differed from the phase (1) specified by a rule in layer mnist
I1206 11:52:16.080400  4195 net.cpp:322] The NetState phase (0) differed from the phase (1) specified by a rule in layer accuracy
I1206 11:52:16.080468  4195 net.cpp:58] Initializing net from parameters: 
name: "LeNet"
state {
  phase: TRAIN
  level: 0
  stage: ""
}
layer {
  name: "mnist"
  type: "Data"
  top: "data"
  top: "label"
  include {
    phase: TRAIN
  }
  transform_param {
    scale: 0.00390625
  }
  data_param {
    source: "examples/mnist/mnist_train_lmdb"
    batch_size: 64
    backend: LMDB
  }
}
layer {
  name: "conv1"
  type: "Convolution"
  bottom: "data"
  top: "conv1"
  param {
    lr_mult: 1
  }
  param {
    lr_mult: 2
  }
  convolution_param {
    num_output: 20
    kernel_size: 5
    stride: 1
    weight_filler {
      type: "xavier"
    }
    bias_filler {
      type: "constant"
    }
  }
}
layer {
  name: "pool1"
  type: "Pooling"
  bottom: "conv1"
  top: "pool1"
  pooling_param {
    pool: MAX
    kernel_size: 2
    stride: 2
  }
}
layer {
  name: "conv2"
  type: "Convolution"
  bottom: "pool1"
  top: "conv2"
  param {
    lr_mult: 1
  }
  param {
    lr_mult: 2
  }
  convolution_param {
    num_output: 50
    kernel_size: 5
    stride: 1
    weight_filler {
      type: "xavier"
    }
    bias_filler {
      type: "constant"
    }
  }
}
layer {
  name: "pool2"
  type: "Pooling"
  bottom: "conv2"
  top: "pool2"
  pooling_param {
    pool: MAX
    kernel_size: 2
    stride: 2
  }
}
layer {
  name: "ip1"
  type: "InnerProduct"
  bottom: "pool2"
  top: "ip1"
  param {
    lr_mult: 1
  }
  param {
    lr_mult: 2
  }
  inner_product_param {
    num_output: 500
    weight_filler {
      type: "xavier"
    }
    bias_filler {
      type: "constant"
    }
  }
}
layer {
  name: "relu1"
  type: "ReLU"
  bottom: "ip1"
  top: "ip1"
}
layer {
  name: "ip2"
  type: "InnerProduct"
  bottom: "ip1"
  top: "ip2"
  param {
    lr_mult: 1
  }
  param {
    lr_mult: 2
  }
  inner_product_param {
    num_output: 10
    weight_filler {
      type: "xavier"
    }
    bias_filler {
      type: "constant"
    }
  }
}
layer {
  name: "loss"
  type: "SoftmaxWithLoss"
  bottom: "ip2"
  bottom: "label"
  top: "loss"
}
I1206 11:52:16.083010  4195 layer_factory.hpp:77] Creating layer mnist
I1206 11:52:16.084030  4195 net.cpp:100] Creating Layer mnist
I1206 11:52:16.084228  4195 net.cpp:408] mnist -> data
I1206 11:52:16.084386  4195 net.cpp:408] mnist -> label
I1206 11:52:16.085497  4202 db_lmdb.cpp:35] Opened lmdb examples/mnist/mnist_train_lmdb
I1206 11:52:16.160650  4195 data_layer.cpp:41] output data size: 64,1,28,28
I1206 11:52:16.162984  4195 net.cpp:150] Setting up mnist
I1206 11:52:16.163056  4195 net.cpp:157] Top shape: 64 1 28 28 (50176)
I1206 11:52:16.163116  4195 net.cpp:157] Top shape: 64 (64)
I1206 11:52:16.163154  4195 net.cpp:165] Memory required for data: 200960
I1206 11:52:16.163202  4195 layer_factory.hpp:77] Creating layer conv1
I1206 11:52:16.163285  4195 net.cpp:100] Creating Layer conv1
I1206 11:52:16.163328  4195 net.cpp:434] conv1 <- data
I1206 11:52:16.163381  4195 net.cpp:408] conv1 -> conv1
I1206 11:52:17.013633  4195 net.cpp:150] Setting up conv1
I1206 11:52:17.013711  4195 net.cpp:157] Top shape: 64 20 24 24 (737280)
I1206 11:52:17.013762  4195 net.cpp:165] Memory required for data: 3150080
I1206 11:52:17.013835  4195 layer_factory.hpp:77] Creating layer pool1
I1206 11:52:17.013890  4195 net.cpp:100] Creating Layer pool1
I1206 11:52:17.013986  4195 net.cpp:434] pool1 <- conv1
I1206 11:52:17.014032  4195 net.cpp:408] pool1 -> pool1
I1206 11:52:17.014206  4195 net.cpp:150] Setting up pool1
I1206 11:52:17.014245  4195 net.cpp:157] Top shape: 64 20 12 12 (184320)
I1206 11:52:17.014284  4195 net.cpp:165] Memory required for data: 3887360
I1206 11:52:17.014314  4195 layer_factory.hpp:77] Creating layer conv2
I1206 11:52:17.014366  4195 net.cpp:100] Creating Layer conv2
I1206 11:52:17.014401  4195 net.cpp:434] conv2 <- pool1
I1206 11:52:17.014441  4195 net.cpp:408] conv2 -> conv2
I1206 11:52:17.018959  4195 net.cpp:150] Setting up conv2
I1206 11:52:17.019024  4195 net.cpp:157] Top shape: 64 50 8 8 (204800)
I1206 11:52:17.019062  4195 net.cpp:165] Memory required for data: 4706560
I1206 11:52:17.019117  4195 layer_factory.hpp:77] Creating layer pool2
I1206 11:52:17.019165  4195 net.cpp:100] Creating Layer pool2
I1206 11:52:17.019201  4195 net.cpp:434] pool2 <- conv2
I1206 11:52:17.019237  4195 net.cpp:408] pool2 -> pool2
I1206 11:52:17.019378  4195 net.cpp:150] Setting up pool2
I1206 11:52:17.019414  4195 net.cpp:157] Top shape: 64 50 4 4 (51200)
I1206 11:52:17.019453  4195 net.cpp:165] Memory required for data: 4911360
I1206 11:52:17.019482  4195 layer_factory.hpp:77] Creating layer ip1
I1206 11:52:17.019529  4195 net.cpp:100] Creating Layer ip1
I1206 11:52:17.019564  4195 net.cpp:434] ip1 <- pool2
I1206 11:52:17.019603  4195 net.cpp:408] ip1 -> ip1
I1206 11:52:17.024804  4195 net.cpp:150] Setting up ip1
I1206 11:52:17.024850  4195 net.cpp:157] Top shape: 64 500 (32000)
I1206 11:52:17.024884  4195 net.cpp:165] Memory required for data: 5039360
I1206 11:52:17.024929  4195 layer_factory.hpp:77] Creating layer relu1
I1206 11:52:17.024969  4195 net.cpp:100] Creating Layer relu1
I1206 11:52:17.024998  4195 net.cpp:434] relu1 <- ip1
I1206 11:52:17.025033  4195 net.cpp:395] relu1 -> ip1 (in-place)
I1206 11:52:17.026746  4195 net.cpp:150] Setting up relu1
I1206 11:52:17.026810  4195 net.cpp:157] Top shape: 64 500 (32000)
I1206 11:52:17.026851  4195 net.cpp:165] Memory required for data: 5167360
I1206 11:52:17.026885  4195 layer_factory.hpp:77] Creating layer ip2
I1206 11:52:17.026931  4195 net.cpp:100] Creating Layer ip2
I1206 11:52:17.026964  4195 net.cpp:434] ip2 <- ip1
I1206 11:52:17.027003  4195 net.cpp:408] ip2 -> ip2
I1206 11:52:17.028301  4195 net.cpp:150] Setting up ip2
I1206 11:52:17.028368  4195 net.cpp:157] Top shape: 64 10 (640)
I1206 11:52:17.028411  4195 net.cpp:165] Memory required for data: 5169920
I1206 11:52:17.028461  4195 layer_factory.hpp:77] Creating layer loss
I1206 11:52:17.028518  4195 net.cpp:100] Creating Layer loss
I1206 11:52:17.028555  4195 net.cpp:434] loss <- ip2
I1206 11:52:17.028594  4195 net.cpp:434] loss <- label
I1206 11:52:17.028638  4195 net.cpp:408] loss -> loss
I1206 11:52:17.028717  4195 layer_factory.hpp:77] Creating layer loss
…
I1206 11:52:17.031561  4195 solver.cpp:193] Creating test net (#0) specified by net file: examples/mnist/lenet_train_test.prototxt
I1206 11:52:17.031723  4195 net.cpp:322] The NetState phase (1) differed from the phase (0) specified by a rule in layer mnist
I1206 11:52:17.031780  4195 net.cpp:58] Initializing net from parameters: 
name: "LeNet"
state {
  phase: TEST
}
layer {
  name: "mnist"
  type: "Data"
  top: "data"
  top: "label"
  include {
    phase: TEST
  }
  transform_param {
    scale: 0.00390625
  }
  data_param {
    source: "examples/mnist/mnist_test_lmdb"
    batch_size: 100
    backend: LMDB
  }
}
layer {
  name: "conv1"
  type: "Convolution"
  bottom: "data"
  top: "conv1"
  param {
    lr_mult: 1
  }
  param {
    lr_mult: 2
  }
  convolution_param {
    num_output: 20
    kernel_size: 5
    stride: 1
    weight_filler {
      type: "xavier"
    }
    bias_filler {
      type: "constant"
    }
  }
}
layer {
  name: "pool1"
  type: "Pooling"
  bottom: "conv1"
  top: "pool1"
  pooling_param {
    pool: MAX
    kernel_size: 2
    stride: 2
  }
}
layer {
  name: "conv2"
  type: "Convolution"
  bottom: "pool1"
  top: "conv2"
  param {
    lr_mult: 1
  }
  param {
    lr_mult: 2
  }
  convolution_param {
    num_output: 50
    kernel_size: 5
    stride: 1
    weight_filler {
      type: "xavier"
    }
    bias_filler {
      type: "constant"
    }
  }
}
layer {
  name: "pool2"
  type: "Pooling"
  bottom: "conv2"
  top: "pool2"
  pooling_param {
    pool: MAX
    kernel_size: 2
    stride: 2
  }
}
layer {
  name: "ip1"
  type: "InnerProduct"
  bottom: "pool2"
  top: "ip1"
  param {
    lr_mult: 1
  }
  param {
    lr_mult: 2
  }
  inner_product_param {
    num_output: 500
    weight_filler {
      type: "xavier"
    }
    bias_filler {
      type: "constant"
    }
  }
}
layer {
  name: "relu1"
  type: "ReLU"
  bottom: "ip1"
  top: "ip1"
}
layer {
  name: "ip2"
  type: "InnerProduct"
  bottom: "ip1"
  top: "ip2"
  param {
    lr_mult: 1
  }
  param {
    lr_mult: 2
  }
  inner_product_param {
    num_output: 10
    weight_filler {
      type: "xavier"
    }
    bias_filler {
      type: "constant"
    }
  }
}
layer {
  name: "accuracy"
  type: "Accuracy"
  bottom: "ip2"
  bottom: "label"
  top: "accuracy"
  include {
    phase: TEST
  }
}
layer {
  name: "loss"
  type: "SoftmaxWithLoss"
  bottom: "ip2"
  bottom: "label"
  top: "loss"
}
I1206 11:52:17.034409  4195 layer_factory.hpp:77] Creating layer mnist
I1206 11:52:17.034699  4195 net.cpp:100] Creating Layer mnist
I1206 11:52:17.034761  4195 net.cpp:408] mnist -> data
I1206 11:52:17.034812  4195 net.cpp:408] mnist -> label
I1206 11:52:17.036031  4204 db_lmdb.cpp:35] Opened lmdb examples/mnist/mnist_test_lmdb
I1206 11:52:17.036451  4195 data_layer.cpp:41] output data size: 100,1,28,28
I1206 11:52:17.041515  4195 net.cpp:150] Setting up mnist
I1206 11:52:17.041582  4195 net.cpp:157] Top shape: 100 1 28 28 (78400)
I1206 11:52:17.041630  4195 net.cpp:157] Top shape: 100 (100)
I1206 11:52:17.041661  4195 net.cpp:165] Memory required for data: 314000
I1206 11:52:17.041697  4195 layer_factory.hpp:77] Creating layer label_mnist_1_split
I1206 11:52:17.041744  4195 net.cpp:100] Creating Layer label_mnist_1_split
I1206 11:52:17.041777  4195 net.cpp:434] label_mnist_1_split <- label
I1206 11:52:17.041815  4195 net.cpp:408] label_mnist_1_split -> label_mnist_1_split_0
I1206 11:52:17.041860  4195 net.cpp:408] label_mnist_1_split -> label_mnist_1_split_1
I1206 11:52:17.042029  4195 net.cpp:150] Setting up label_mnist_1_split
I1206 11:52:17.042074  4195 net.cpp:157] Top shape: 100 (100)
I1206 11:52:17.042109  4195 net.cpp:157] Top shape: 100 (100)
I1206 11:52:17.042140  4195 net.cpp:165] Memory required for data: 314800
I1206 11:52:17.042259  4195 layer_factory.hpp:77] Creating layer conv1
I1206 11:52:17.042315  4195 net.cpp:100] Creating Layer conv1
I1206 11:52:17.042351  4195 net.cpp:434] conv1 <- data
I1206 11:52:17.042389  4195 net.cpp:408] conv1 -> conv1
I1206 11:52:17.053037  4195 net.cpp:150] Setting up conv1
I1206 11:52:17.053118  4195 net.cpp:157] Top shape: 100 20 24 24 (1152000)
I1206 11:52:17.053164  4195 net.cpp:165] Memory required for data: 4922800
I1206 11:52:17.053218  4195 layer_factory.hpp:77] Creating layer pool1
I1206 11:52:17.053329  4195 net.cpp:100] Creating Layer pool1
I1206 11:52:17.053364  4195 net.cpp:434] pool1 <- conv1
I1206 11:52:17.053407  4195 net.cpp:408] pool1 -> pool1
I1206 11:52:17.053606  4195 net.cpp:150] Setting up pool1
I1206 11:52:17.053645  4195 net.cpp:157] Top shape: 100 20 12 12 (288000)
I1206 11:52:17.053686  4195 net.cpp:165] Memory required for data: 6074800
I1206 11:52:17.053717  4195 layer_factory.hpp:77] Creating layer conv2
I1206 11:52:17.053773  4195 net.cpp:100] Creating Layer conv2
I1206 11:52:17.053808  4195 net.cpp:434] conv2 <- pool1
I1206 11:52:17.053846  4195 net.cpp:408] conv2 -> conv2
I1206 11:52:17.066601  4195 net.cpp:150] Setting up conv2
I1206 11:52:17.066673  4195 net.cpp:157] Top shape: 100 50 8 8 (320000)
I1206 11:52:17.066722  4195 net.cpp:165] Memory required for data: 7354800
I1206 11:52:17.066781  4195 layer_factory.hpp:77] Creating layer pool2
I1206 11:52:17.066838  4195 net.cpp:100] Creating Layer pool2
I1206 11:52:17.066880  4195 net.cpp:434] pool2 <- conv2
I1206 11:52:17.066923  4195 net.cpp:408] pool2 -> pool2
I1206 11:52:17.067106  4195 net.cpp:150] Setting up pool2
I1206 11:52:17.067148  4195 net.cpp:157] Top shape: 100 50 4 4 (80000)
I1206 11:52:17.067191  4195 net.cpp:165] Memory required for data: 7674800
I1206 11:52:17.067224  4195 layer_factory.hpp:77] Creating layer ip1
I1206 11:52:17.067266  4195 net.cpp:100] Creating Layer ip1
I1206 11:52:17.067301  4195 net.cpp:434] ip1 <- pool2
I1206 11:52:17.067350  4195 net.cpp:408] ip1 -> ip1
I1206 11:52:17.072757  4195 net.cpp:150] Setting up ip1
I1206 11:52:17.072816  4195 net.cpp:157] Top shape: 100 500 (50000)
I1206 11:52:17.072857  4195 net.cpp:165] Memory required for data: 7874800
I1206 11:52:17.072908  4195 layer_factory.hpp:77] Creating layer relu1
I1206 11:52:17.072950  4195 net.cpp:100] Creating Layer relu1
I1206 11:52:17.072983  4195 net.cpp:434] relu1 <- ip1
I1206 11:52:17.073026  4195 net.cpp:395] relu1 -> ip1 (in-place)
I1206 11:52:17.074393  4195 net.cpp:150] Setting up relu1
I1206 11:52:17.074445  4195 net.cpp:157] Top shape: 100 500 (50000)
I1206 11:52:17.074481  4195 net.cpp:165] Memory required for data: 8074800
I1206 11:52:17.074511  4195 layer_factory.hpp:77] Creating layer ip2
I1206 11:52:17.074564  4195 net.cpp:100] Creating Layer ip2
I1206 11:52:17.074596  4195 net.cpp:434] ip2 <- ip1
I1206 11:52:17.074635  4195 net.cpp:408] ip2 -> ip2
I1206 11:52:17.075130  4195 net.cpp:150] Setting up ip2
I1206 11:52:17.075176  4195 net.cpp:157] Top shape: 100 10 (1000)
I1206 11:52:17.075215  4195 net.cpp:165] Memory required for data: 8078800
I1206 11:52:17.075258  4195 layer_factory.hpp:77] Creating layer ip2_ip2_0_split
I1206 11:52:17.075307  4195 net.cpp:100] Creating Layer ip2_ip2_0_split
I1206 11:52:17.075345  4195 net.cpp:434] ip2_ip2_0_split <- ip2
I1206 11:52:17.075381  4195 net.cpp:408] ip2_ip2_0_split -> ip2_ip2_0_split_0
I1206 11:52:17.075423  4195 net.cpp:408] ip2_ip2_0_split -> ip2_ip2_0_split_1
I1206 11:52:17.075671  4195 net.cpp:150] Setting up ip2_ip2_0_split
I1206 11:52:17.075712  4195 net.cpp:157] Top shape: 100 10 (1000)
I1206 11:52:17.075749  4195 net.cpp:157] Top shape: 100 10 (1000)
I1206 11:52:17.075784  4195 net.cpp:165] Memory required for data: 8086800
I1206 11:52:17.075816  4195 layer_factory.hpp:77] Creating layer accuracy
I1206 11:52:17.075863  4195 net.cpp:100] Creating Layer accuracy
I1206 11:52:17.075898  4195 net.cpp:434] accuracy <- ip2_ip2_0_split_0
I1206 11:52:17.075937  4195 net.cpp:434] accuracy <- label_mnist_1_split_0
I1206 11:52:17.075975  4195 net.cpp:408] accuracy -> accuracy
…
