…
I1203 14:46:24.613376  3005 net.cpp:322] The NetState phase (0) differed from the phase (1) specified by a rule in layer mnist
I1203 14:46:24.613459  3005 net.cpp:322] The NetState phase (0) differed from the phase (1) specified by a rule in layer accuracy
I1203 14:46:24.613519  3005 net.cpp:58] Initializing net from parameters: 
name: "LeNet"
state {
  phase: TRAIN
  level: 0
  stage: ""
}
layer {
  name: "mnist"
  type: "Data"
  top: "data"
  top: "label"
  include {
    phase: TRAIN
  }
  transform_param {
    scale: 0.00390625
  }
  data_param {
    source: "examples/mnist/mnist_train_lmdb"
    batch_size: 64
    backend: LMDB
  }
}
layer {
  name: "conv1"
  type: "Convolution"
  bottom: "data"
  top: "conv1"
  param {
    lr_mult: 1
  }
  param {
    lr_mult: 2
  }
  convolution_param {
    num_output: 20
    kernel_size: 5
    stride: 1
    weight_filler {
      type: "xavier"
    }
    bias_filler {
      type: "constant"
    }
  }
}
layer {
  name: "pool1"
  type: "Pooling"
  bottom: "conv1"
  top: "pool1"
  pooling_param {
    pool: MAX
    kernel_size: 2
    stride: 2
  }
}
layer {
  name: "conv2"
  type: "Convolution"
  bottom: "pool1"
  top: "conv2"
  param {
    lr_mult: 1
  }
  param {
    lr_mult: 2
  }
  convolution_param {
    num_output: 50
    kernel_size: 5
    stride: 1
    weight_filler {
      type: "xavier"
    }
    bias_filler {
      type: "constant"
    }
  }
}
layer {
  name: "pool2"
  type: "Pooling"
  bottom: "conv2"
  top: "pool2"
  pooling_param {
    pool: MAX
    kernel_size: 2
    stride: 2
  }
}
layer {
  name: "ip1"
  type: "InnerProduct"
  bottom: "pool2"
  top: "ip1"
  param {
    lr_mult: 1
  }
  param {
    lr_mult: 2
  }
  inner_product_param {
    num_output: 500
    weight_filler {
      type: "xavier"
    }
    bias_filler {
      type: "constant"
    }
  }
}
layer {
  name: "relu1"
  type: "ReLU"
  bottom: "ip1"
  top: "ip1"
}
layer {
  name: "ip2"
  type: "InnerProduct"
  bottom: "ip1"
  top: "ip2"
  param {
    lr_mult: 1
  }
  param {
    lr_mult: 2
  }
  inner_product_param {
    num_output: 10
    weight_filler {
      type: "xavier"
    }
    bias_filler {
      type: "constant"
    }
  }
}
layer {
  name: "loss"
  type: "SoftmaxWithLoss"
  bottom: "ip2"
  bottom: "label"
  top: "loss"
}
I1203 14:46:24.615876  3005 layer_factory.hpp:77] Creating layer mnist
I1203 14:46:24.616968  3005 net.cpp:100] Creating Layer mnist
I1203 14:46:24.617032  3005 net.cpp:408] mnist -> data
I1203 14:46:24.617125  3005 net.cpp:408] mnist -> label
I1203 14:46:24.619688  3013 db_lmdb.cpp:35] Opened lmdb examples/mnist/mnist_train_lmdb
I1203 14:46:24.773879  3005 data_layer.cpp:41] output data size: 64,1,28,28
I1203 14:46:24.777117  3005 net.cpp:150] Setting up mnist
I1203 14:46:24.777186  3005 net.cpp:157] Top shape: 64 1 28 28 (50176)
I1203 14:46:24.777254  3005 net.cpp:157] Top shape: 64 (64)
I1203 14:46:24.777295  3005 net.cpp:165] Memory required for data: 200960
I1203 14:46:24.777346  3005 layer_factory.hpp:77] Creating layer conv1
I1203 14:46:24.777439  3005 net.cpp:100] Creating Layer conv1
I1203 14:46:24.777485  3005 net.cpp:434] conv1 <- data
I1203 14:46:24.777545  3005 net.cpp:408] conv1 -> conv1
I1203 14:46:26.059850  3005 net.cpp:150] Setting up conv1
I1203 14:46:26.059929  3005 net.cpp:157] Top shape: 64 20 24 24 (737280)
I1203 14:46:26.059979  3005 net.cpp:165] Memory required for data: 3150080
I1203 14:46:26.060055  3005 layer_factory.hpp:77] Creating layer pool1
I1203 14:46:26.060114  3005 net.cpp:100] Creating Layer pool1
I1203 14:46:26.060211  3005 net.cpp:434] pool1 <- conv1
I1203 14:46:26.060258  3005 net.cpp:408] pool1 -> pool1
I1203 14:46:26.060454  3005 net.cpp:150] Setting up pool1
I1203 14:46:26.060493  3005 net.cpp:157] Top shape: 64 20 12 12 (184320)
I1203 14:46:26.060533  3005 net.cpp:165] Memory required for data: 3887360
I1203 14:46:26.060570  3005 layer_factory.hpp:77] Creating layer conv2
I1203 14:46:26.060617  3005 net.cpp:100] Creating Layer conv2
I1203 14:46:26.060653  3005 net.cpp:434] conv2 <- pool1
I1203 14:46:26.060698  3005 net.cpp:408] conv2 -> conv2
I1203 14:46:26.066200  3005 net.cpp:150] Setting up conv2
I1203 14:46:26.066264  3005 net.cpp:157] Top shape: 64 50 8 8 (204800)
I1203 14:46:26.066306  3005 net.cpp:165] Memory required for data: 4706560
I1203 14:46:26.066360  3005 layer_factory.hpp:77] Creating layer pool2
I1203 14:46:26.066406  3005 net.cpp:100] Creating Layer pool2
I1203 14:46:26.066442  3005 net.cpp:434] pool2 <- conv2
I1203 14:46:26.066486  3005 net.cpp:408] pool2 -> pool2
I1203 14:46:26.066628  3005 net.cpp:150] Setting up pool2
I1203 14:46:26.066664  3005 net.cpp:157] Top shape: 64 50 4 4 (51200)
I1203 14:46:26.066704  3005 net.cpp:165] Memory required for data: 4911360
I1203 14:46:26.066736  3005 layer_factory.hpp:77] Creating layer ip1
I1203 14:46:26.066787  3005 net.cpp:100] Creating Layer ip1
I1203 14:46:26.066824  3005 net.cpp:434] ip1 <- pool2
I1203 14:46:26.066864  3005 net.cpp:408] ip1 -> ip1
I1203 14:46:26.072536  3005 net.cpp:150] Setting up ip1
I1203 14:46:26.072598  3005 net.cpp:157] Top shape: 64 500 (32000)
I1203 14:46:26.072636  3005 net.cpp:165] Memory required for data: 5039360
I1203 14:46:26.072688  3005 layer_factory.hpp:77] Creating layer relu1
I1203 14:46:26.072739  3005 net.cpp:100] Creating Layer relu1
I1203 14:46:26.072773  3005 net.cpp:434] relu1 <- ip1
I1203 14:46:26.072813  3005 net.cpp:395] relu1 -> ip1 (in-place)
I1203 14:46:26.075014  3005 net.cpp:150] Setting up relu1
I1203 14:46:26.075083  3005 net.cpp:157] Top shape: 64 500 (32000)
I1203 14:46:26.075122  3005 net.cpp:165] Memory required for data: 5167360
I1203 14:46:26.075156  3005 layer_factory.hpp:77] Creating layer ip2
I1203 14:46:26.075204  3005 net.cpp:100] Creating Layer ip2
I1203 14:46:26.075239  3005 net.cpp:434] ip2 <- ip1
I1203 14:46:26.075284  3005 net.cpp:408] ip2 -> ip2
I1203 14:46:26.076215  3005 net.cpp:150] Setting up ip2
I1203 14:46:26.076275  3005 net.cpp:157] Top shape: 64 10 (640)
I1203 14:46:26.076315  3005 net.cpp:165] Memory required for data: 5169920
I1203 14:46:26.076369  3005 layer_factory.hpp:77] Creating layer loss
I1203 14:46:26.076431  3005 net.cpp:100] Creating Layer loss
I1203 14:46:26.076472  3005 net.cpp:434] loss <- ip2
I1203 14:46:26.076513  3005 net.cpp:434] loss <- label
I1203 14:46:26.076560  3005 net.cpp:408] loss -> loss
I1203 14:46:26.076644  3005 layer_factory.hpp:77] Creating layer loss
…
I1203 14:46:26.079974  3005 solver.cpp:193] Creating test net (#0) specified by net file: examples/mnist/lenet_train_test.prototxt
I1203 14:46:26.080124  3005 net.cpp:322] The NetState phase (1) differed from the phase (0) specified by a rule in layer mnist
I1203 14:46:26.080178  3005 net.cpp:58] Initializing net from parameters: 
name: "LeNet"
state {
  phase: TEST
}
layer {
  name: "mnist"
  type: "Data"
  top: "data"
  top: "label"
  include {
    phase: TEST
  }
  transform_param {
    scale: 0.00390625
  }
  data_param {
    source: "examples/mnist/mnist_test_lmdb"
    batch_size: 100
    backend: LMDB
  }
}
layer {
  name: "conv1"
  type: "Convolution"
  bottom: "data"
  top: "conv1"
  param {
    lr_mult: 1
  }
  param {
    lr_mult: 2
  }
  convolution_param {
    num_output: 20
    kernel_size: 5
    stride: 1
    weight_filler {
      type: "xavier"
    }
    bias_filler {
      type: "constant"
    }
  }
}
layer {
  name: "pool1"
  type: "Pooling"
  bottom: "conv1"
  top: "pool1"
  pooling_param {
    pool: MAX
    kernel_size: 2
    stride: 2
  }
}
layer {
  name: "conv2"
  type: "Convolution"
  bottom: "pool1"
  top: "conv2"
  param {
    lr_mult: 1
  }
  param {
    lr_mult: 2
  }
  convolution_param {
    num_output: 50
    kernel_size: 5
    stride: 1
    weight_filler {
      type: "xavier"
    }
    bias_filler {
      type: "constant"
    }
  }
}
layer {
  name: "pool2"
  type: "Pooling"
  bottom: "conv2"
  top: "pool2"
  pooling_param {
    pool: MAX
    kernel_size: 2
    stride: 2
  }
}
layer {
  name: "ip1"
  type: "InnerProduct"
  bottom: "pool2"
  top: "ip1"
  param {
    lr_mult: 1
  }
  param {
    lr_mult: 2
  }
  inner_product_param {
    num_output: 500
    weight_filler {
      type: "xavier"
    }
    bias_filler {
      type: "constant"
    }
  }
}
layer {
  name: "relu1"
  type: "ReLU"
  bottom: "ip1"
  top: "ip1"
}
layer {
  name: "ip2"
  type: "InnerProduct"
  bottom: "ip1"
  top: "ip2"
  param {
    lr_mult: 1
  }
  param {
    lr_mult: 2
  }
  inner_product_param {
    num_output: 10
    weight_filler {
      type: "xavier"
    }
    bias_filler {
      type: "constant"
    }
  }
}
layer {
  name: "accuracy"
  type: "Accuracy"
  bottom: "ip2"
  bottom: "label"
  top: "accuracy"
  include {
    phase: TEST
  }
}
layer {
  name: "loss"
  type: "SoftmaxWithLoss"
  bottom: "ip2"
  bottom: "label"
  top: "loss"
}
I1203 14:46:26.082914  3005 layer_factory.hpp:77] Creating layer mnist
I1203 14:46:26.083187  3005 net.cpp:100] Creating Layer mnist
I1203 14:46:26.083238  3005 net.cpp:408] mnist -> data
I1203 14:46:26.083288  3005 net.cpp:408] mnist -> label
I1203 14:46:26.086163  3015 db_lmdb.cpp:35] Opened lmdb examples/mnist/mnist_test_lmdb
I1203 14:46:26.094532  3005 data_layer.cpp:41] output data size: 100,1,28,28
I1203 14:46:26.107971  3005 net.cpp:150] Setting up mnist
I1203 14:46:26.108093  3005 net.cpp:157] Top shape: 100 1 28 28 (78400)
I1203 14:46:26.108168  3005 net.cpp:157] Top shape: 100 (100)
I1203 14:46:26.108235  3005 net.cpp:165] Memory required for data: 314000
I1203 14:46:26.108299  3005 layer_factory.hpp:77] Creating layer label_mnist_1_split
I1203 14:46:26.108382  3005 net.cpp:100] Creating Layer label_mnist_1_split
I1203 14:46:26.108453  3005 net.cpp:434] label_mnist_1_split <- label
I1203 14:46:26.108520  3005 net.cpp:408] label_mnist_1_split -> label_mnist_1_split_0
I1203 14:46:26.108608  3005 net.cpp:408] label_mnist_1_split -> label_mnist_1_split_1
I1203 14:46:26.108882  3005 net.cpp:150] Setting up label_mnist_1_split
I1203 14:46:26.108944  3005 net.cpp:157] Top shape: 100 (100)
I1203 14:46:26.109000  3005 net.cpp:157] Top shape: 100 (100)
I1203 14:46:26.109053  3005 net.cpp:165] Memory required for data: 314800
I1203 14:46:26.109112  3005 layer_factory.hpp:77] Creating layer conv1
I1203 14:46:26.109197  3005 net.cpp:100] Creating Layer conv1
I1203 14:46:26.109247  3005 net.cpp:434] conv1 <- data
I1203 14:46:26.109308  3005 net.cpp:408] conv1 -> conv1
I1203 14:46:26.120199  3005 net.cpp:150] Setting up conv1
I1203 14:46:26.120296  3005 net.cpp:157] Top shape: 100 20 24 24 (1152000)
I1203 14:46:26.120381  3005 net.cpp:165] Memory required for data: 4922800
I1203 14:46:26.120465  3005 layer_factory.hpp:77] Creating layer pool1
I1203 14:46:26.120636  3005 net.cpp:100] Creating Layer pool1
I1203 14:46:26.120704  3005 net.cpp:434] pool1 <- conv1
I1203 14:46:26.120780  3005 net.cpp:408] pool1 -> pool1
I1203 14:46:26.121078  3005 net.cpp:150] Setting up pool1
I1203 14:46:26.121143  3005 net.cpp:157] Top shape: 100 20 12 12 (288000)
I1203 14:46:26.121206  3005 net.cpp:165] Memory required for data: 6074800
I1203 14:46:26.121258  3005 layer_factory.hpp:77] Creating layer conv2
I1203 14:46:26.121341  3005 net.cpp:100] Creating Layer conv2
I1203 14:46:26.121397  3005 net.cpp:434] conv2 <- pool1
I1203 14:46:26.121457  3005 net.cpp:408] conv2 -> conv2
I1203 14:46:26.133352  3005 net.cpp:150] Setting up conv2
I1203 14:46:26.133484  3005 net.cpp:157] Top shape: 100 50 8 8 (320000)
I1203 14:46:26.133558  3005 net.cpp:165] Memory required for data: 7354800
I1203 14:46:26.133651  3005 layer_factory.hpp:77] Creating layer pool2
I1203 14:46:26.133765  3005 net.cpp:100] Creating Layer pool2
I1203 14:46:26.133829  3005 net.cpp:434] pool2 <- conv2
I1203 14:46:26.133906  3005 net.cpp:408] pool2 -> pool2
I1203 14:46:26.134361  3005 net.cpp:150] Setting up pool2
I1203 14:46:26.134439  3005 net.cpp:157] Top shape: 100 50 4 4 (80000)
I1203 14:46:26.134500  3005 net.cpp:165] Memory required for data: 7674800
I1203 14:46:26.134553  3005 layer_factory.hpp:77] Creating layer ip1
I1203 14:46:26.134635  3005 net.cpp:100] Creating Layer ip1
I1203 14:46:26.134686  3005 net.cpp:434] ip1 <- pool2
I1203 14:46:26.134760  3005 net.cpp:408] ip1 -> ip1
I1203 14:46:26.145176  3005 net.cpp:150] Setting up ip1
I1203 14:46:26.145252  3005 net.cpp:157] Top shape: 100 500 (50000)
I1203 14:46:26.145311  3005 net.cpp:165] Memory required for data: 7874800
I1203 14:46:26.145375  3005 layer_factory.hpp:77] Creating layer relu1
I1203 14:46:26.145434  3005 net.cpp:100] Creating Layer relu1
I1203 14:46:26.145485  3005 net.cpp:434] relu1 <- ip1
I1203 14:46:26.145542  3005 net.cpp:395] relu1 -> ip1 (in-place)
I1203 14:46:26.148193  3005 net.cpp:150] Setting up relu1
I1203 14:46:26.148277  3005 net.cpp:157] Top shape: 100 500 (50000)
I1203 14:46:26.148326  3005 net.cpp:165] Memory required for data: 8074800
I1203 14:46:26.148365  3005 layer_factory.hpp:77] Creating layer ip2
I1203 14:46:26.148447  3005 net.cpp:100] Creating Layer ip2
I1203 14:46:26.148494  3005 net.cpp:434] ip2 <- ip1
I1203 14:46:26.148555  3005 net.cpp:408] ip2 -> ip2
I1203 14:46:26.149237  3005 net.cpp:150] Setting up ip2
I1203 14:46:26.149293  3005 net.cpp:157] Top shape: 100 10 (1000)
I1203 14:46:26.149343  3005 net.cpp:165] Memory required for data: 8078800
I1203 14:46:26.149401  3005 layer_factory.hpp:77] Creating layer ip2_ip2_0_split
I1203 14:46:26.149449  3005 net.cpp:100] Creating Layer ip2_ip2_0_split
I1203 14:46:26.149498  3005 net.cpp:434] ip2_ip2_0_split <- ip2
I1203 14:46:26.149546  3005 net.cpp:408] ip2_ip2_0_split -> ip2_ip2_0_split_0
I1203 14:46:26.149598  3005 net.cpp:408] ip2_ip2_0_split -> ip2_ip2_0_split_1
I1203 14:46:26.149798  3005 net.cpp:150] Setting up ip2_ip2_0_split
I1203 14:46:26.149842  3005 net.cpp:157] Top shape: 100 10 (1000)
I1203 14:46:26.149889  3005 net.cpp:157] Top shape: 100 10 (1000)
I1203 14:46:26.149929  3005 net.cpp:165] Memory required for data: 8086800
I1203 14:46:26.149967  3005 layer_factory.hpp:77] Creating layer accuracy
I1203 14:46:26.150104  3005 net.cpp:100] Creating Layer accuracy
I1203 14:46:26.150156  3005 net.cpp:434] accuracy <- ip2_ip2_0_split_0
I1203 14:46:26.150200  3005 net.cpp:434] accuracy <- label_mnist_1_split_0
I1203 14:46:26.150255  3005 net.cpp:408] accuracy -> accuracy
…
