…
I1205 23:33:54.099587  3727 net.cpp:322] The NetState phase (0) differed from the phase (1) specified by a rule in layer mnist
I1205 23:33:54.099671  3727 net.cpp:322] The NetState phase (0) differed from the phase (1) specified by a rule in layer accuracy
I1205 23:33:54.099732  3727 net.cpp:58] Initializing net from parameters: 
name: "LeNet"
state {
  phase: TRAIN
  level: 0
  stage: ""
}
layer {
  name: "mnist"
  type: "Data"
  top: "data"
  top: "label"
  include {
    phase: TRAIN
  }
  transform_param {
    scale: 0.00390625
  }
  data_param {
    source: "examples/mnist/mnist_train_lmdb"
    batch_size: 64
    backend: LMDB
  }
}
layer {
  name: "conv1"
  type: "Convolution"
  bottom: "data"
  top: "conv1"
  param {
    lr_mult: 1
  }
  param {
    lr_mult: 2
  }
  convolution_param {
    num_output: 10
    kernel_size: 5
    stride: 1
    weight_filler {
      type: "xavier"
    }
    bias_filler {
      type: "constant"
    }
  }
}
layer {
  name: "pool1"
  type: "Pooling"
  bottom: "conv1"
  top: "pool1"
  pooling_param {
    pool: MAX
    kernel_size: 2
    stride: 2
  }
}
layer {
  name: "conv2"
  type: "Convolution"
  bottom: "pool1"
  top: "conv2"
  param {
    lr_mult: 1
  }
  param {
    lr_mult: 2
  }
  convolution_param {
    num_output: 50
    kernel_size: 5
    stride: 1
    weight_filler {
      type: "xavier"
    }
    bias_filler {
      type: "constant"
    }
  }
}
layer {
  name: "pool2"
  type: "Pooling"
  bottom: "conv2"
  top: "pool2"
  pooling_param {
    pool: MAX
    kernel_size: 2
    stride: 2
  }
}
layer {
  name: "ip1"
  type: "InnerProduct"
  bottom: "pool2"
  top: "ip1"
  param {
    lr_mult: 1
  }
  param {
    lr_mult: 2
  }
  inner_product_param {
    num_output: 500
    weight_filler {
      type: "xavier"
    }
    bias_filler {
      type: "constant"
    }
  }
}
layer {
  name: "relu1"
  type: "ReLU"
  bottom: "ip1"
  top: "ip1"
}
layer {
  name: "ip2"
  type: "InnerProduct"
  bottom: "ip1"
  top: "ip2"
  param {
    lr_mult: 1
  }
  param {
    lr_mult: 2
  }
  inner_product_param {
    num_output: 10
    weight_filler {
      type: "xavier"
    }
    bias_filler {
      type: "constant"
    }
  }
}
layer {
  name: "loss"
  type: "SoftmaxWithLoss"
  bottom: "ip2"
  bottom: "label"
  top: "loss"
}
I1205 23:33:54.102252  3727 layer_factory.hpp:77] Creating layer mnist
I1205 23:33:54.103327  3727 net.cpp:100] Creating Layer mnist
I1205 23:33:54.103390  3727 net.cpp:408] mnist -> data
I1205 23:33:54.103484  3727 net.cpp:408] mnist -> label
I1205 23:33:54.104485  3735 db_lmdb.cpp:35] Opened lmdb examples/mnist/mnist_train_lmdb
I1205 23:33:54.174809  3727 data_layer.cpp:41] output data size: 64,1,28,28
I1205 23:33:54.176960  3727 net.cpp:150] Setting up mnist
I1205 23:33:54.177167  3727 net.cpp:157] Top shape: 64 1 28 28 (50176)
I1205 23:33:54.177328  3727 net.cpp:157] Top shape: 64 (64)
I1205 23:33:54.177460  3727 net.cpp:165] Memory required for data: 200960
I1205 23:33:54.177594  3727 layer_factory.hpp:77] Creating layer conv1
I1205 23:33:54.177760  3727 net.cpp:100] Creating Layer conv1
I1205 23:33:54.177891  3727 net.cpp:434] conv1 <- data
I1205 23:33:54.178027  3727 net.cpp:408] conv1 -> conv1
I1205 23:33:54.965211  3727 net.cpp:150] Setting up conv1
I1205 23:33:54.965293  3727 net.cpp:157] Top shape: 64 10 24 24 (368640)
I1205 23:33:54.965348  3727 net.cpp:165] Memory required for data: 1675520
I1205 23:33:54.965423  3727 layer_factory.hpp:77] Creating layer pool1
I1205 23:33:54.965481  3727 net.cpp:100] Creating Layer pool1
I1205 23:33:54.965579  3727 net.cpp:434] pool1 <- conv1
I1205 23:33:54.965626  3727 net.cpp:408] pool1 -> pool1
I1205 23:33:54.965806  3727 net.cpp:150] Setting up pool1
I1205 23:33:54.965847  3727 net.cpp:157] Top shape: 64 10 12 12 (92160)
I1205 23:33:54.965888  3727 net.cpp:165] Memory required for data: 2044160
I1205 23:33:54.965917  3727 layer_factory.hpp:77] Creating layer conv2
I1205 23:33:54.965967  3727 net.cpp:100] Creating Layer conv2
I1205 23:33:54.966001  3727 net.cpp:434] conv2 <- pool1
I1205 23:33:54.966042  3727 net.cpp:408] conv2 -> conv2
I1205 23:33:54.970800  3727 net.cpp:150] Setting up conv2
I1205 23:33:54.970863  3727 net.cpp:157] Top shape: 64 50 8 8 (204800)
I1205 23:33:54.970911  3727 net.cpp:165] Memory required for data: 2863360
I1205 23:33:54.970958  3727 layer_factory.hpp:77] Creating layer pool2
I1205 23:33:54.971004  3727 net.cpp:100] Creating Layer pool2
I1205 23:33:54.971040  3727 net.cpp:434] pool2 <- conv2
I1205 23:33:54.971076  3727 net.cpp:408] pool2 -> pool2
I1205 23:33:54.971215  3727 net.cpp:150] Setting up pool2
I1205 23:33:54.971251  3727 net.cpp:157] Top shape: 64 50 4 4 (51200)
I1205 23:33:54.971287  3727 net.cpp:165] Memory required for data: 3068160
I1205 23:33:54.971321  3727 layer_factory.hpp:77] Creating layer ip1
I1205 23:33:54.971371  3727 net.cpp:100] Creating Layer ip1
I1205 23:33:54.971405  3727 net.cpp:434] ip1 <- pool2
I1205 23:33:54.971443  3727 net.cpp:408] ip1 -> ip1
I1205 23:33:54.976647  3727 net.cpp:150] Setting up ip1
I1205 23:33:54.976703  3727 net.cpp:157] Top shape: 64 500 (32000)
I1205 23:33:54.976739  3727 net.cpp:165] Memory required for data: 3196160
I1205 23:33:54.976786  3727 layer_factory.hpp:77] Creating layer relu1
I1205 23:33:54.976832  3727 net.cpp:100] Creating Layer relu1
I1205 23:33:54.976863  3727 net.cpp:434] relu1 <- ip1
I1205 23:33:54.976899  3727 net.cpp:395] relu1 -> ip1 (in-place)
I1205 23:33:54.978777  3727 net.cpp:150] Setting up relu1
I1205 23:33:54.978850  3727 net.cpp:157] Top shape: 64 500 (32000)
I1205 23:33:54.978893  3727 net.cpp:165] Memory required for data: 3324160
I1205 23:33:54.978932  3727 layer_factory.hpp:77] Creating layer ip2
I1205 23:33:54.978986  3727 net.cpp:100] Creating Layer ip2
I1205 23:33:54.979033  3727 net.cpp:434] ip2 <- ip1
I1205 23:33:54.979079  3727 net.cpp:408] ip2 -> ip2
I1205 23:33:54.979571  3727 net.cpp:150] Setting up ip2
I1205 23:33:54.979624  3727 net.cpp:157] Top shape: 64 10 (640)
I1205 23:33:54.979660  3727 net.cpp:165] Memory required for data: 3326720
I1205 23:33:54.979701  3727 layer_factory.hpp:77] Creating layer loss
I1205 23:33:54.979754  3727 net.cpp:100] Creating Layer loss
I1205 23:33:54.979787  3727 net.cpp:434] loss <- ip2
I1205 23:33:54.979820  3727 net.cpp:434] loss <- label
I1205 23:33:54.979861  3727 net.cpp:408] loss -> loss
I1205 23:33:54.979933  3727 layer_factory.hpp:77] Creating layer loss
…
I1205 23:33:54.982650  3727 solver.cpp:193] Creating test net (#0) specified by net file: examples/mnist/lenet_train_test.prototxt
I1205 23:33:54.982808  3727 net.cpp:322] The NetState phase (1) differed from the phase (0) specified by a rule in layer mnist
I1205 23:33:54.982867  3727 net.cpp:58] Initializing net from parameters: 
name: "LeNet"
state {
  phase: TEST
}
layer {
  name: "mnist"
  type: "Data"
  top: "data"
  top: "label"
  include {
    phase: TEST
  }
  transform_param {
    scale: 0.00390625
  }
  data_param {
    source: "examples/mnist/mnist_test_lmdb"
    batch_size: 100
    backend: LMDB
  }
}
layer {
  name: "conv1"
  type: "Convolution"
  bottom: "data"
  top: "conv1"
  param {
    lr_mult: 1
  }
  param {
    lr_mult: 2
  }
  convolution_param {
    num_output: 10
    kernel_size: 5
    stride: 1
    weight_filler {
      type: "xavier"
    }
    bias_filler {
      type: "constant"
    }
  }
}
layer {
  name: "pool1"
  type: "Pooling"
  bottom: "conv1"
  top: "pool1"
  pooling_param {
    pool: MAX
    kernel_size: 2
    stride: 2
  }
}
layer {
  name: "conv2"
  type: "Convolution"
  bottom: "pool1"
  top: "conv2"
  param {
    lr_mult: 1
  }
  param {
    lr_mult: 2
  }
  convolution_param {
    num_output: 50
    kernel_size: 5
    stride: 1
    weight_filler {
      type: "xavier"
    }
    bias_filler {
      type: "constant"
    }
  }
}
layer {
  name: "pool2"
  type: "Pooling"
  bottom: "conv2"
  top: "pool2"
  pooling_param {
    pool: MAX
    kernel_size: 2
    stride: 2
  }
}
layer {
  name: "ip1"
  type: "InnerProduct"
  bottom: "pool2"
  top: "ip1"
  param {
    lr_mult: 1
  }
  param {
    lr_mult: 2
  }
  inner_product_param {
    num_output: 500
    weight_filler {
      type: "xavier"
    }
    bias_filler {
      type: "constant"
    }
  }
}
layer {
  name: "relu1"
  type: "ReLU"
  bottom: "ip1"
  top: "ip1"
}
layer {
  name: "ip2"
  type: "InnerProduct"
  bottom: "ip1"
  top: "ip2"
  param {
    lr_mult: 1
  }
  param {
    lr_mult: 2
  }
  inner_product_param {
    num_output: 10
    weight_filler {
      type: "xavier"
    }
    bias_filler {
      type: "constant"
    }
  }
}
layer {
  name: "accuracy"
  type: "Accuracy"
  bottom: "ip2"
  bottom: "label"
  top: "accuracy"
  include {
    phase: TEST
  }
}
layer {
  name: "loss"
  type: "SoftmaxWithLoss"
  bottom: "ip2"
  bottom: "label"
  top: "loss"
}
I1205 23:33:54.985648  3727 layer_factory.hpp:77] Creating layer mnist
I1205 23:33:54.985925  3727 net.cpp:100] Creating Layer mnist
I1205 23:33:54.985978  3727 net.cpp:408] mnist -> data
I1205 23:33:54.986032  3727 net.cpp:408] mnist -> label
I1205 23:33:54.987085  3737 db_lmdb.cpp:35] Opened lmdb examples/mnist/mnist_test_lmdb
I1205 23:33:54.987494  3727 data_layer.cpp:41] output data size: 100,1,28,28
I1205 23:33:54.991646  3727 net.cpp:150] Setting up mnist
I1205 23:33:54.991710  3727 net.cpp:157] Top shape: 100 1 28 28 (78400)
I1205 23:33:54.991755  3727 net.cpp:157] Top shape: 100 (100)
I1205 23:33:54.991789  3727 net.cpp:165] Memory required for data: 314000
I1205 23:33:54.991825  3727 layer_factory.hpp:77] Creating layer label_mnist_1_split
I1205 23:33:54.991871  3727 net.cpp:100] Creating Layer label_mnist_1_split
I1205 23:33:54.991904  3727 net.cpp:434] label_mnist_1_split <- label
I1205 23:33:54.991945  3727 net.cpp:408] label_mnist_1_split -> label_mnist_1_split_0
I1205 23:33:54.991991  3727 net.cpp:408] label_mnist_1_split -> label_mnist_1_split_1
I1205 23:33:54.992153  3727 net.cpp:150] Setting up label_mnist_1_split
I1205 23:33:54.992190  3727 net.cpp:157] Top shape: 100 (100)
I1205 23:33:54.992223  3727 net.cpp:157] Top shape: 100 (100)
I1205 23:33:54.992254  3727 net.cpp:165] Memory required for data: 314800
I1205 23:33:54.992281  3727 layer_factory.hpp:77] Creating layer conv1
I1205 23:33:54.992329  3727 net.cpp:100] Creating Layer conv1
I1205 23:33:54.992359  3727 net.cpp:434] conv1 <- data
I1205 23:33:54.992394  3727 net.cpp:408] conv1 -> conv1
I1205 23:33:55.005726  3727 net.cpp:150] Setting up conv1
I1205 23:33:55.005794  3727 net.cpp:157] Top shape: 100 10 24 24 (576000)
I1205 23:33:55.005841  3727 net.cpp:165] Memory required for data: 2618800
I1205 23:33:55.005903  3727 layer_factory.hpp:77] Creating layer pool1
I1205 23:33:55.006019  3727 net.cpp:100] Creating Layer pool1
I1205 23:33:55.006062  3727 net.cpp:434] pool1 <- conv1
I1205 23:33:55.006105  3727 net.cpp:408] pool1 -> pool1
I1205 23:33:55.006295  3727 net.cpp:150] Setting up pool1
I1205 23:33:55.006335  3727 net.cpp:157] Top shape: 100 10 12 12 (144000)
I1205 23:33:55.006372  3727 net.cpp:165] Memory required for data: 3194800
I1205 23:33:55.006407  3727 layer_factory.hpp:77] Creating layer conv2
I1205 23:33:55.006471  3727 net.cpp:100] Creating Layer conv2
I1205 23:33:55.006505  3727 net.cpp:434] conv2 <- pool1
I1205 23:33:55.006546  3727 net.cpp:408] conv2 -> conv2
I1205 23:33:55.018364  3727 net.cpp:150] Setting up conv2
I1205 23:33:55.018430  3727 net.cpp:157] Top shape: 100 50 8 8 (320000)
I1205 23:33:55.018482  3727 net.cpp:165] Memory required for data: 4474800
I1205 23:33:55.018535  3727 layer_factory.hpp:77] Creating layer pool2
I1205 23:33:55.018594  3727 net.cpp:100] Creating Layer pool2
I1205 23:33:55.018631  3727 net.cpp:434] pool2 <- conv2
I1205 23:33:55.018676  3727 net.cpp:408] pool2 -> pool2
I1205 23:33:55.018859  3727 net.cpp:150] Setting up pool2
I1205 23:33:55.018898  3727 net.cpp:157] Top shape: 100 50 4 4 (80000)
I1205 23:33:55.018936  3727 net.cpp:165] Memory required for data: 4794800
I1205 23:33:55.019093  3727 layer_factory.hpp:77] Creating layer ip1
I1205 23:33:55.019137  3727 net.cpp:100] Creating Layer ip1
I1205 23:33:55.019170  3727 net.cpp:434] ip1 <- pool2
I1205 23:33:55.019215  3727 net.cpp:408] ip1 -> ip1
I1205 23:33:55.024560  3727 net.cpp:150] Setting up ip1
I1205 23:33:55.024612  3727 net.cpp:157] Top shape: 100 500 (50000)
I1205 23:33:55.024653  3727 net.cpp:165] Memory required for data: 4994800
I1205 23:33:55.024698  3727 layer_factory.hpp:77] Creating layer relu1
I1205 23:33:55.024736  3727 net.cpp:100] Creating Layer relu1
I1205 23:33:55.024775  3727 net.cpp:434] relu1 <- ip1
I1205 23:33:55.024819  3727 net.cpp:395] relu1 -> ip1 (in-place)
I1205 23:33:55.026115  3727 net.cpp:150] Setting up relu1
I1205 23:33:55.026163  3727 net.cpp:157] Top shape: 100 500 (50000)
I1205 23:33:55.026206  3727 net.cpp:165] Memory required for data: 5194800
I1205 23:33:55.026235  3727 layer_factory.hpp:77] Creating layer ip2
I1205 23:33:55.026288  3727 net.cpp:100] Creating Layer ip2
I1205 23:33:55.026324  3727 net.cpp:434] ip2 <- ip1
I1205 23:33:55.026368  3727 net.cpp:408] ip2 -> ip2
I1205 23:33:55.026859  3727 net.cpp:150] Setting up ip2
I1205 23:33:55.026899  3727 net.cpp:157] Top shape: 100 10 (1000)
I1205 23:33:55.026935  3727 net.cpp:165] Memory required for data: 5198800
I1205 23:33:55.026975  3727 layer_factory.hpp:77] Creating layer ip2_ip2_0_split
I1205 23:33:55.027019  3727 net.cpp:100] Creating Layer ip2_ip2_0_split
I1205 23:33:55.027052  3727 net.cpp:434] ip2_ip2_0_split <- ip2
I1205 23:33:55.027089  3727 net.cpp:408] ip2_ip2_0_split -> ip2_ip2_0_split_0
I1205 23:33:55.027169  3727 net.cpp:408] ip2_ip2_0_split -> ip2_ip2_0_split_1
I1205 23:33:55.027328  3727 net.cpp:150] Setting up ip2_ip2_0_split
I1205 23:33:55.027364  3727 net.cpp:157] Top shape: 100 10 (1000)
I1205 23:33:55.027397  3727 net.cpp:157] Top shape: 100 10 (1000)
I1205 23:33:55.027431  3727 net.cpp:165] Memory required for data: 5206800
I1205 23:33:55.027465  3727 layer_factory.hpp:77] Creating layer accuracy
I1205 23:33:55.027513  3727 net.cpp:100] Creating Layer accuracy
I1205 23:33:55.027545  3727 net.cpp:434] accuracy <- ip2_ip2_0_split_0
I1205 23:33:55.027580  3727 net.cpp:434] accuracy <- label_mnist_1_split_0
I1205 23:33:55.027623  3727 net.cpp:408] accuracy -> accuracy
…
