…
I1206 00:40:49.393561  4713 net.cpp:322] The NetState phase (0) differed from the phase (1) specified by a rule in layer mnist
I1206 00:40:49.393649  4713 net.cpp:322] The NetState phase (0) differed from the phase (1) specified by a rule in layer accuracy
I1206 00:40:49.393714  4713 net.cpp:58] Initializing net from parameters: 
name: "LeNet"
state {
  phase: TRAIN
  level: 0
  stage: ""
}
layer {
  name: "mnist"
  type: "Data"
  top: "data"
  top: "label"
  include {
    phase: TRAIN
  }
  transform_param {
    scale: 0.00390625
  }
  data_param {
    source: "examples/mnist/mnist_train_lmdb"
    batch_size: 64
    backend: LMDB
  }
}
layer {
  name: "conv1"
  type: "Convolution"
  bottom: "data"
  top: "conv1"
  param {
    lr_mult: 1
  }
  param {
    lr_mult: 2
  }
  convolution_param {
    num_output: 20
    kernel_size: 5
    stride: 1
    weight_filler {
      type: "xavier"
    }
    bias_filler {
      type: "constant"
    }
  }
}
layer {
  name: "pool1"
  type: "Pooling"
  bottom: "conv1"
  top: "pool1"
  pooling_param {
    pool: MAX
    kernel_size: 2
    stride: 2
  }
}
layer {
  name: "conv2"
  type: "Convolution"
  bottom: "pool1"
  top: "conv2"
  param {
    lr_mult: 1
  }
  param {
    lr_mult: 2
  }
  convolution_param {
    num_output: 50
    kernel_size: 5
    stride: 1
    weight_filler {
      type: "xavier"
    }
    bias_filler {
      type: "constant"
    }
  }
}
layer {
  name: "pool2"
  type: "Pooling"
  bottom: "conv2"
  top: "pool2"
  pooling_param {
    pool: MAX
    kernel_size: 2
    stride: 2
  }
}
layer {
  name: "ip1"
  type: "InnerProduct"
  bottom: "pool2"
  top: "ip1"
  param {
    lr_mult: 1
  }
  param {
    lr_mult: 2
  }
  inner_product_param {
    num_output: 500
    weight_filler {
      type: "xavier"
    }
    bias_filler {
      type: "constant"
    }
  }
}
layer {
  name: "relu1"
  type: "ReLU"
  bottom: "ip1"
  top: "ip1"
}
layer {
  name: "ip2"
  type: "InnerProduct"
  bottom: "ip1"
  top: "ip2"
  param {
    lr_mult: 1
  }
  param {
    lr_mult: 2
  }
  inner_product_param {
    num_output: 10
    weight_filler {
      type: "xavier"
    }
    bias_filler {
      type: "constant"
    }
  }
}
layer {
  name: "loss"
  type: "SoftmaxWithLoss"
  bottom: "ip2"
  bottom: "label"
  top: "loss"
}
I1206 00:40:49.396214  4713 layer_factory.hpp:77] Creating layer mnist
I1206 00:40:49.397260  4713 net.cpp:100] Creating Layer mnist
I1206 00:40:49.397331  4713 net.cpp:408] mnist -> data
I1206 00:40:49.397431  4713 net.cpp:408] mnist -> label
I1206 00:40:49.398484  4720 db_lmdb.cpp:35] Opened lmdb examples/mnist/mnist_train_lmdb
I1206 00:40:49.472426  4713 data_layer.cpp:41] output data size: 64,1,28,28
I1206 00:40:49.474427  4713 net.cpp:150] Setting up mnist
I1206 00:40:49.474496  4713 net.cpp:157] Top shape: 64 1 28 28 (50176)
I1206 00:40:49.474558  4713 net.cpp:157] Top shape: 64 (64)
I1206 00:40:49.474599  4713 net.cpp:165] Memory required for data: 200960
I1206 00:40:49.474648  4713 layer_factory.hpp:77] Creating layer conv1
I1206 00:40:49.474727  4713 net.cpp:100] Creating Layer conv1
I1206 00:40:49.474771  4713 net.cpp:434] conv1 <- data
I1206 00:40:49.474828  4713 net.cpp:408] conv1 -> conv1
I1206 00:40:50.285090  4713 net.cpp:150] Setting up conv1
I1206 00:40:50.285172  4713 net.cpp:157] Top shape: 64 20 24 24 (737280)
I1206 00:40:50.285219  4713 net.cpp:165] Memory required for data: 3150080
I1206 00:40:50.285302  4713 layer_factory.hpp:77] Creating layer pool1
I1206 00:40:50.285368  4713 net.cpp:100] Creating Layer pool1
I1206 00:40:50.285466  4713 net.cpp:434] pool1 <- conv1
I1206 00:40:50.285514  4713 net.cpp:408] pool1 -> pool1
I1206 00:40:50.285699  4713 net.cpp:150] Setting up pool1
I1206 00:40:50.285739  4713 net.cpp:157] Top shape: 64 20 12 12 (184320)
I1206 00:40:50.285778  4713 net.cpp:165] Memory required for data: 3887360
I1206 00:40:50.285815  4713 layer_factory.hpp:77] Creating layer conv2
I1206 00:40:50.285866  4713 net.cpp:100] Creating Layer conv2
I1206 00:40:50.285898  4713 net.cpp:434] conv2 <- pool1
I1206 00:40:50.285939  4713 net.cpp:408] conv2 -> conv2
I1206 00:40:50.290469  4713 net.cpp:150] Setting up conv2
I1206 00:40:50.290531  4713 net.cpp:157] Top shape: 64 50 8 8 (204800)
I1206 00:40:50.290575  4713 net.cpp:165] Memory required for data: 4706560
I1206 00:40:50.290622  4713 layer_factory.hpp:77] Creating layer pool2
I1206 00:40:50.290676  4713 net.cpp:100] Creating Layer pool2
I1206 00:40:50.290712  4713 net.cpp:434] pool2 <- conv2
I1206 00:40:50.290750  4713 net.cpp:408] pool2 -> pool2
I1206 00:40:50.290897  4713 net.cpp:150] Setting up pool2
I1206 00:40:50.290933  4713 net.cpp:157] Top shape: 64 50 4 4 (51200)
I1206 00:40:50.290972  4713 net.cpp:165] Memory required for data: 4911360
I1206 00:40:50.291002  4713 layer_factory.hpp:77] Creating layer ip1
I1206 00:40:50.291049  4713 net.cpp:100] Creating Layer ip1
I1206 00:40:50.291086  4713 net.cpp:434] ip1 <- pool2
I1206 00:40:50.291124  4713 net.cpp:408] ip1 -> ip1
I1206 00:40:50.296309  4713 net.cpp:150] Setting up ip1
I1206 00:40:50.296355  4713 net.cpp:157] Top shape: 64 500 (32000)
I1206 00:40:50.296392  4713 net.cpp:165] Memory required for data: 5039360
I1206 00:40:50.296435  4713 layer_factory.hpp:77] Creating layer relu1
I1206 00:40:50.296478  4713 net.cpp:100] Creating Layer relu1
I1206 00:40:50.296507  4713 net.cpp:434] relu1 <- ip1
I1206 00:40:50.296540  4713 net.cpp:395] relu1 -> ip1 (in-place)
I1206 00:40:50.298359  4713 net.cpp:150] Setting up relu1
I1206 00:40:50.298418  4713 net.cpp:157] Top shape: 64 500 (32000)
I1206 00:40:50.298455  4713 net.cpp:165] Memory required for data: 5167360
I1206 00:40:50.298491  4713 layer_factory.hpp:77] Creating layer ip2
I1206 00:40:50.298533  4713 net.cpp:100] Creating Layer ip2
I1206 00:40:50.298600  4713 net.cpp:434] ip2 <- ip1
I1206 00:40:50.298665  4713 net.cpp:408] ip2 -> ip2
I1206 00:40:50.299335  4713 net.cpp:150] Setting up ip2
I1206 00:40:50.299396  4713 net.cpp:157] Top shape: 64 10 (640)
I1206 00:40:50.299434  4713 net.cpp:165] Memory required for data: 5169920
I1206 00:40:50.299479  4713 layer_factory.hpp:77] Creating layer loss
I1206 00:40:50.299531  4713 net.cpp:100] Creating Layer loss
I1206 00:40:50.299566  4713 net.cpp:434] loss <- ip2
I1206 00:40:50.299600  4713 net.cpp:434] loss <- label
I1206 00:40:50.299641  4713 net.cpp:408] loss -> loss
I1206 00:40:50.299717  4713 layer_factory.hpp:77] Creating layer loss
…
I1206 00:40:50.302568  4713 solver.cpp:193] Creating test net (#0) specified by net file: examples/mnist/lenet_train_test.prototxt
I1206 00:40:50.302726  4713 net.cpp:322] The NetState phase (1) differed from the phase (0) specified by a rule in layer mnist
I1206 00:40:50.302788  4713 net.cpp:58] Initializing net from parameters: 
name: "LeNet"
state {
  phase: TEST
}
layer {
  name: "mnist"
  type: "Data"
  top: "data"
  top: "label"
  include {
    phase: TEST
  }
  transform_param {
    scale: 0.00390625
  }
  data_param {
    source: "examples/mnist/mnist_test_lmdb"
    batch_size: 100
    backend: LMDB
  }
}
layer {
  name: "conv1"
  type: "Convolution"
  bottom: "data"
  top: "conv1"
  param {
    lr_mult: 1
  }
  param {
    lr_mult: 2
  }
  convolution_param {
    num_output: 20
    kernel_size: 5
    stride: 1
    weight_filler {
      type: "xavier"
    }
    bias_filler {
      type: "constant"
    }
  }
}
layer {
  name: "pool1"
  type: "Pooling"
  bottom: "conv1"
  top: "pool1"
  pooling_param {
    pool: MAX
    kernel_size: 2
    stride: 2
  }
}
layer {
  name: "conv2"
  type: "Convolution"
  bottom: "pool1"
  top: "conv2"
  param {
    lr_mult: 1
  }
  param {
    lr_mult: 2
  }
  convolution_param {
    num_output: 50
    kernel_size: 5
    stride: 1
    weight_filler {
      type: "xavier"
    }
    bias_filler {
      type: "constant"
    }
  }
}
layer {
  name: "pool2"
  type: "Pooling"
  bottom: "conv2"
  top: "pool2"
  pooling_param {
    pool: MAX
    kernel_size: 2
    stride: 2
  }
}
layer {
  name: "ip1"
  type: "InnerProduct"
  bottom: "pool2"
  top: "ip1"
  param {
    lr_mult: 1
  }
  param {
    lr_mult: 2
  }
  inner_product_param {
    num_output: 500
    weight_filler {
      type: "xavier"
    }
    bias_filler {
      type: "constant"
    }
  }
}
layer {
  name: "relu1"
  type: "ReLU"
  bottom: "ip1"
  top: "ip1"
}
layer {
  name: "ip2"
  type: "InnerProduct"
  bottom: "ip1"
  top: "ip2"
  param {
    lr_mult: 1
  }
  param {
    lr_mult: 2
  }
  inner_product_param {
    num_output: 10
    weight_filler {
      type: "xavier"
    }
    bias_filler {
      type: "constant"
    }
  }
}
layer {
  name: "accuracy"
  type: "Accuracy"
  bottom: "ip2"
  bottom: "label"
  top: "accuracy"
  include {
    phase: TEST
  }
}
layer {
  name: "loss"
  type: "SoftmaxWithLoss"
  bottom: "ip2"
  bottom: "label"
  top: "loss"
}
I1206 00:40:50.305142  4713 layer_factory.hpp:77] Creating layer mnist
I1206 00:40:50.305433  4713 net.cpp:100] Creating Layer mnist
I1206 00:40:50.305482  4713 net.cpp:408] mnist -> data
I1206 00:40:50.305536  4713 net.cpp:408] mnist -> label
I1206 00:40:50.306761  4722 db_lmdb.cpp:35] Opened lmdb examples/mnist/mnist_test_lmdb
I1206 00:40:50.307262  4713 data_layer.cpp:41] output data size: 100,1,28,28
I1206 00:40:50.311364  4713 net.cpp:150] Setting up mnist
I1206 00:40:50.311431  4713 net.cpp:157] Top shape: 100 1 28 28 (78400)
I1206 00:40:50.311473  4713 net.cpp:157] Top shape: 100 (100)
I1206 00:40:50.311504  4713 net.cpp:165] Memory required for data: 314000
I1206 00:40:50.311540  4713 layer_factory.hpp:77] Creating layer label_mnist_1_split
I1206 00:40:50.311584  4713 net.cpp:100] Creating Layer label_mnist_1_split
I1206 00:40:50.311616  4713 net.cpp:434] label_mnist_1_split <- label
I1206 00:40:50.311652  4713 net.cpp:408] label_mnist_1_split -> label_mnist_1_split_0
I1206 00:40:50.311695  4713 net.cpp:408] label_mnist_1_split -> label_mnist_1_split_1
I1206 00:40:50.311858  4713 net.cpp:150] Setting up label_mnist_1_split
I1206 00:40:50.311898  4713 net.cpp:157] Top shape: 100 (100)
I1206 00:40:50.311931  4713 net.cpp:157] Top shape: 100 (100)
I1206 00:40:50.311960  4713 net.cpp:165] Memory required for data: 314800
I1206 00:40:50.311988  4713 layer_factory.hpp:77] Creating layer conv1
I1206 00:40:50.312036  4713 net.cpp:100] Creating Layer conv1
I1206 00:40:50.312065  4713 net.cpp:434] conv1 <- data
I1206 00:40:50.312100  4713 net.cpp:408] conv1 -> conv1
I1206 00:40:50.322836  4713 net.cpp:150] Setting up conv1
I1206 00:40:50.322901  4713 net.cpp:157] Top shape: 100 20 24 24 (1152000)
I1206 00:40:50.322940  4713 net.cpp:165] Memory required for data: 4922800
I1206 00:40:50.323055  4713 layer_factory.hpp:77] Creating layer pool1
I1206 00:40:50.323101  4713 net.cpp:100] Creating Layer pool1
I1206 00:40:50.323132  4713 net.cpp:434] pool1 <- conv1
I1206 00:40:50.323173  4713 net.cpp:408] pool1 -> pool1
I1206 00:40:50.323338  4713 net.cpp:150] Setting up pool1
I1206 00:40:50.323369  4713 net.cpp:157] Top shape: 100 20 12 12 (288000)
I1206 00:40:50.323401  4713 net.cpp:165] Memory required for data: 6074800
I1206 00:40:50.323431  4713 layer_factory.hpp:77] Creating layer conv2
I1206 00:40:50.323488  4713 net.cpp:100] Creating Layer conv2
I1206 00:40:50.323520  4713 net.cpp:434] conv2 <- pool1
I1206 00:40:50.323562  4713 net.cpp:408] conv2 -> conv2
I1206 00:40:50.337249  4713 net.cpp:150] Setting up conv2
I1206 00:40:50.337317  4713 net.cpp:157] Top shape: 100 50 8 8 (320000)
I1206 00:40:50.337378  4713 net.cpp:165] Memory required for data: 7354800
I1206 00:40:50.337435  4713 layer_factory.hpp:77] Creating layer pool2
I1206 00:40:50.337488  4713 net.cpp:100] Creating Layer pool2
I1206 00:40:50.337523  4713 net.cpp:434] pool2 <- conv2
I1206 00:40:50.337573  4713 net.cpp:408] pool2 -> pool2
I1206 00:40:50.337759  4713 net.cpp:150] Setting up pool2
I1206 00:40:50.337802  4713 net.cpp:157] Top shape: 100 50 4 4 (80000)
I1206 00:40:50.337837  4713 net.cpp:165] Memory required for data: 7674800
I1206 00:40:50.337874  4713 layer_factory.hpp:77] Creating layer ip1
I1206 00:40:50.337927  4713 net.cpp:100] Creating Layer ip1
I1206 00:40:50.337996  4713 net.cpp:434] ip1 <- pool2
I1206 00:40:50.338040  4713 net.cpp:408] ip1 -> ip1
I1206 00:40:50.343490  4713 net.cpp:150] Setting up ip1
I1206 00:40:50.343547  4713 net.cpp:157] Top shape: 100 500 (50000)
I1206 00:40:50.343585  4713 net.cpp:165] Memory required for data: 7874800
I1206 00:40:50.343637  4713 layer_factory.hpp:77] Creating layer relu1
I1206 00:40:50.343680  4713 net.cpp:100] Creating Layer relu1
I1206 00:40:50.343715  4713 net.cpp:434] relu1 <- ip1
I1206 00:40:50.343753  4713 net.cpp:395] relu1 -> ip1 (in-place)
I1206 00:40:50.345103  4713 net.cpp:150] Setting up relu1
I1206 00:40:50.345154  4713 net.cpp:157] Top shape: 100 500 (50000)
I1206 00:40:50.345193  4713 net.cpp:165] Memory required for data: 8074800
I1206 00:40:50.345228  4713 layer_factory.hpp:77] Creating layer ip2
I1206 00:40:50.345310  4713 net.cpp:100] Creating Layer ip2
I1206 00:40:50.345363  4713 net.cpp:434] ip2 <- ip1
I1206 00:40:50.345432  4713 net.cpp:408] ip2 -> ip2
I1206 00:40:50.345914  4713 net.cpp:150] Setting up ip2
I1206 00:40:50.345954  4713 net.cpp:157] Top shape: 100 10 (1000)
I1206 00:40:50.345994  4713 net.cpp:165] Memory required for data: 8078800
I1206 00:40:50.346035  4713 layer_factory.hpp:77] Creating layer ip2_ip2_0_split
I1206 00:40:50.346076  4713 net.cpp:100] Creating Layer ip2_ip2_0_split
I1206 00:40:50.346107  4713 net.cpp:434] ip2_ip2_0_split <- ip2
I1206 00:40:50.346148  4713 net.cpp:408] ip2_ip2_0_split -> ip2_ip2_0_split_0
I1206 00:40:50.346190  4713 net.cpp:408] ip2_ip2_0_split -> ip2_ip2_0_split_1
I1206 00:40:50.346333  4713 net.cpp:150] Setting up ip2_ip2_0_split
I1206 00:40:50.346366  4713 net.cpp:157] Top shape: 100 10 (1000)
I1206 00:40:50.346400  4713 net.cpp:157] Top shape: 100 10 (1000)
I1206 00:40:50.346434  4713 net.cpp:165] Memory required for data: 8086800
I1206 00:40:50.346467  4713 layer_factory.hpp:77] Creating layer accuracy
I1206 00:40:50.346513  4713 net.cpp:100] Creating Layer accuracy
I1206 00:40:50.346545  4713 net.cpp:434] accuracy <- ip2_ip2_0_split_0
I1206 00:40:50.346580  4713 net.cpp:434] accuracy <- label_mnist_1_split_0
I1206 00:40:50.346618  4713 net.cpp:408] accuracy -> accuracy
…
